models/main_agent_model.pt (torch, 84591 bytes, 7 tensors)

weight f4 [64, 243]
0.04546167 0.018238954 0.030373877 0.026380897 0.041851796 -0.0018021966 -0.022191618 -0.0015997067
0.006789965 0.060661923 -0.0079846755 0.017496068 -0.0072739683 -0.057819135 -0.047489405 0.030148083
-0.045245424 0.011816193 -0.020523485 0.053919412 -0.06385948 0.01613938 -0.025407404 -0.03161049
-0.00655875 -0.05791583 -0.0034802004 -0.04982982 0.03935001 -0.046875395 -0.059586566 0.0435729
-0.009232506 -0.04577899 -0.00925291 -0.047005147 0.05556218 0.045473278 0.05198034 -0.04211268
0.06351561 -0.010877302 0.024803942 0.04814154 -0.012494262 0.055727825 0.0125686005 -0.03963001
-0.016505292 0.032555174 -0.0043986402 -0.034793973 -0.031031389 0.016493572 -0.0358205 0.06181959
0.0070628747 0.039862577 0.023981154 -0.05881414 -0.034542933 -0.0094438605 -0.017314237 0.010156217
-0.015312674 0.06410558 0.015377909 0.03196466 -0.0067922287 -0.05256986 -0.0623298 0.02580083
-0.0199984 -0.057410013 -0.049156405 0.028187614 0.03650994 -0.020255402 -0.060117405 -0.052826237
-0.021022795 0.034519926 0.04178273 -0.02049963 -0.055171598 -0.008845929 -0.05461224 -0.004200652
0.052298866 0.0391206 0.05394421 -0.049874753 -0.0062365457 -0.045808334 0.039744645 0.028443247
0.05850489 -0.0027920976 0.05423539 -0.02323236 -0.022888642 0.041357823 0.0131308455 0.03478366
0.06225448 0.029813394 0.052441232 -0.02099812 0.017632551 0.0021509975 0.010200616 -0.032372974
-0.003443066 -0.035557114 0.018030586 -0.058003955 -0.035733886 -0.019746764 -0.010819476 -0.01882825
0.041621797 0.030042127 -0.0042874403 -0.04852507 -0.037551045 -0.031800274 -0.027473891 -0.06315031
-0.028285235 -0.04493329 0.022866912 0.0426327 -0.032349408 -0.058823973 0.041400272 0.056676745
-0.04433013 0.04212116 0.02426969 -0.038520217 0.034726776 0.057462823 -0.061044324 0.0058738845
-0.060751807 -0.061458368 -0.00760379 -0.02151893 -0.035423756 -0.040617373 -0.042615198 -0.05930553
0.014613576 -0.04408163 -0.028923586 -0.043699138 0.051967513 0.027912736 0.0008013919 -0.040360987
0.026184633 0.045054205 -0.030025367 0.044123277 0.04668928 -0.034539025 -0.013883454 0.002573043
-0.05842162 0.04844016 0.028310254 -0.024555355 0.016609415 0.053735506 0.043246076 0.0042174384
-0.037222654 0.0008053276 -0.0429177 -0.05089751 0.04856839 0.024151295 0.029219314 -0.06333208
0.014894359 -0.038762484 0.05131331 0.05028384 -0.034692124 0.026383623 0.047500826 0.012832012
0.06515465 -0.037021596 -0.01635873 -0.059768796 -0.041676417 -0.05462112 0.06301056 0.007628426
0.049107976 -0.057926767 0.052444946 -0.013216632 0.038728114 -0.031485308 0.032263666 -0.031028355
-0.016857013 0.00058209896 -0.02575559 -0.014339146 0.048819542 0.019084685 0.023813419 -0.03070857
0.023665808 -0.029917127 0.03154953 -0.0096753985 -0.056107543 -0.054514453 -0.059804626 -0.046432592
-0.037469953 -0.0360369 -0.052208535 -0.04363054 -0.051188983 -0.011675775 0.021075414 0.03123045
-0.044983275 -0.017901419 0.0035830513 0.007529564 -0.055471044 0.008406483 0.019898102 -0.070045546
-0.042884406 0.063932516 0.019370293 -0.024908442 0.022140771 -0.020014325 -0.03494207 -0.04275811
0.041756738 0.057546664 -0.042449612 -0.025222646 -0.027682936 0.047280617 -0.05247962 -0.016914237
00000000: 0436 3a3d dc69 953c a3d2 f83c c01c d83c
00000010: ca6c 2b3d af37 ecba 32cb b5bc 40ad d1ba
00000020: 5b7e de3b a378 783d 28d2 02bc ea53 8f3c
00000030: 785a eebb c2d3 6cbd 4084 42bd 1df9 f63c
00000040: 4453 39bd b598 413c de20 a8bc 9ada 5c3d
00000050: c2c8 82bd bc36 843c 3023 d0bc 007a 01bd
00000060: c8ea d6bb 2639 6dbd 1314 64bb 5a1a 4cbd
00000070: 7a2d 213d 6a00 40bd 0b11 74bd 7f79 323d
00000080: f043 17bc c082 3bbd 8499 17bc 7888 40bd
00000090: 2b95 633d 3042 3a3d 56e9 543d 587e 2cbd
000000a0: 7914 823d b636 32bc a331 cb3c 1030 453d
000000b0: bcb4 4cbc dc42 643d 88ec 4d3c 1453 22bd
000000c0: 1b36 87bc 9358 053d 7822 90bb 2084 0ebd
000000d0: 8a35 febc 871d 873c 84b8 12bd 8a36 7d3d
000000e0: b06f e73b f146 233d 2074 c43c 18e7 70bd
000000f0: e47c 0dbd 6cba 1abc 96d6 8dbc 4366 263c
00000100: 03e2 7abc c949 833d a0f3 7b3c 60ed 023d
00000110: 5891 debb 7e53 57bd 884d 7fbd 435c d33c
00000120: afd3 a3bc c326 6bbd 3a58 49bd b6e9 e63c
00000130: 728b 153d a8ee a5bc ab3d 76bd 5360 58bd
00000140: ff37 acbc c464 0d3d 5e24 2b3d d7ee a7bc
00000150: 9dfb 61bd 84ee 10bc 16b1 5fbd 9fa5 89bb
00000160: 5637 563d ec3c 203d 9bf4 5c3d 7849 4cbd
00000170: f05b ccbb 85a1 3bbd 48cb 223d d001 e93c
00000180: d3a2 6f3d a0fb 36bb ee25 5e3d ca51 bebc
00000190: f680 bbbc d266 293d c222 573c 5079 0e3d
000001a0: 8efe 7e3d 383b f43c 9ecc 563d 4004 acbc
000001b0: 2472 903c c0f7 0c3b 7c20 273c 8699 04bd
000001c0: 10a5 61bb 56a4 11bd e1b4 933c 8e95 6dbd
000001d0: b25d 12bd f7c3 a1bc 2c44 31bc b43d 9abc
000001e0: 9e7b 2a3d e81a f63c a87d 8cbb 39c2 46bd
000001f0: 20cf 19bd 0141 02bd ed10 e1bc f354 81bd
00000200: 70b6 e7bc f80b 38bd 6453 bb3c a09f 2e3d
00000210: d080 04bd 68f1 70bd 5593 293d e025 683d
00000220: 8393 35bd 3d87 2c3d 3bd1 c63c 60c7 1dbd
00000230: aa3d 0e3d 235e 6b3d 9d09 7abd b779 c03b
00000240: e3d6 78bd c5bb 7bbd 3729 f9bb 7848 b0bc
00000250: 8018 11bd 675e 26bd 468d 2ebd 5bea 72bd
00000260: c86d 6f3c f08e 34bd 28f1 ecbc defd 32bd
00000270: e3db 543d 40a9 e43c 8014 523a 9051 25bd
00000280: 2881 d63c c28a 383d c2f7 f5bc 9cba 343d
00000290: 423d 3f3d cb78 0dbd 6d77 63bc 80a0 283b
000002a0: 824b 6fbd 3069 463d e8ea e73c 5028 c9bc
000002b0: 7810 883c c319 5c3d cc22 313d 7032 8a3b
000002c0: c876 18bd 9f1c 533a 78ca 2fbd e879 50bd
000002d0: a6ef 463d f0d8 c53c 585d ef3c 40b4 81bd
000002e0: 7807 743c 69c5 1ebd e82d 523d 6ef6 4d3d
000002f0: 5419 0ebd 7822 d83c 3a90 423d 5c3d 523c
00000300: cd6f 853d f5a3 17bd be02 86bc 20d0 74bd
00000310: e4b4 2abd 65ba 5fbd ae0b 813d e0f7 f93b
00000320: 7225 493d 9e44 6dbd 83d0 563d 938a 58bc
00000330: 5fa1 1e3d bdf6 00bd e826 043d 2d2f febc
00000340: b817 8abc 0098 183a 63fd d2bc bdee 6abc
00000350: 00f7 473d 7c57 9c3c 5c14 c33c 8a90 fbbc
00000360: ccde c13c c314 f5bc 143a 013d 9085 1ebc
00000370: 06d1 65bd 8c4a 5fbd b2f5 74bd 1a30 3ebd
00000380: 187a 19bd 6e9b 13bd 9ed8 55bd f0b5 32bd
00000390: 8aab 51bd c04b 3fbc 59a6 ac3c 00d7 ff3c
000003a0: 6240 38bd ffa5 92bc a0d1 6a3b 90ba f63b
000003b0: 9b35 63bd 58bb 093c 5801 a33c 0a74 8fbd
000003c0: 8fa7 2fbd 0def 823d 73ae 9e3c ca0c ccbc
000003d0: 9060 b53c 15f5 a3bc 6a1f 0fbd 2123 2fbd
000003e0: 1d09 2b3d 0db6 6b3d a5df 2dbd b99f cebc
000003f0: 53c7 e2bc 52a9 413d dff4 56bd ba8f 8abc

bias f4 [64]
-0.028359251 0.034985516 -0.027283143 0.05029366 -0.023804221 -0.02705124 -0.0042803213 0.031513594
-0.0021527119 -0.023293713 0.04710823 0.06404429 -0.05408396 0.049377374 0.031499546 0.019285284
0.011731254 -0.05968199 -0.028359693 -0.033810586 0.0066663283 0.062480383 0.037572198 0.018824605
0.036483824 -0.011565695 -0.06900336 -0.0083424905 0.03131743 0.041777413 0.020912908 -0.032842524
0.057990007 -0.006693344 -0.06891268 -0.022239361 -0.051915947 -0.010384992 0.033385795 -0.016343612
0.036610927 -0.034723744 -0.041147463 -0.042093996 0.031806536 -0.0020664285 0.045909245 0.08471362
0.041354507 -0.047426544 -0.014276095 0.04158505 0.05872155 -0.013398413 0.061067276 -0.046481766
-0.036748685 0.03626 0.026100773 -0.013816914 0.05889027 0.02939151 0.057500888 0.0048275962
00000000: a951 e8bc f94c 0f3d e680 dfbc ba00 4e3d
00000010: 1201 c3bc 909a ddbc f041 8cbb 6614 013d
00000020: 8314 0dbb 75d2 bebc 8ff4 403d a729 833d
00000030: 2487 5dbd ee3f 4a3d ab05 013d 2cfc 9d3c
00000040: 7234 403c 1a75 74bd 9652 e8bc f87c 0abd
00000050: 3771 da3b 6eeb 7f3d 4ee5 193d 0f36 9a3c
00000060: 1070 153d 0a7e 3dbc a251 8dbd f1ae 08bc
00000070: b546 003d cb1e 2b3d 8c51 ab3c e285 06bd
00000080: ee86 6d3d d753 dbbb 1722 8dbd 522f b6bc
00000090: d1a5 54bd d025 2abc 8bbf 083d 0ae3 85bc
000000a0: 57f5 153d 7c3a 0ebd 3e8a 28bd c16a 2cbd
000000b0: 9247 023d eb6c 07bb 550b 3c3d 567e ad3d
000000c0: 5863 293d 5642 42bd 48e6 69bc 1655 2a3d
000000d0: 0286 703d 0485 5bbc ae21 7a3d aa63 3ebd
000000e0: ca85 16bd 5e85 143d 4ad1 d53c 5660 62bc
000000f0: ec36 713d 77c6 f03c 0d86 6b3d d030 9e3b

weight f4 [64, 64]
-0.01589021 -0.104624465 -0.026173756 0.07276295 0.019513726 -0.08164801 0.10320487 0.08267993
-0.012662679 -0.00074894726 0.11537878 0.03356111 -0.087594315 0.05553149 -0.015174165 0.08546668
-0.04280433 -0.0022941232 -0.0034570694 -0.10564013 -0.05167656 -0.012369692 0.03700921 0.0599809
-0.04595183 -0.09190318 -0.08282934 -0.11288558 0.101752564 0.062814325 -0.06996967 -0.038531795
-0.0109163225 -0.10166438 -0.042681485 -0.10789698 -0.10550344 -0.11420806 0.11625482 -0.0028879493
-0.013879597 0.084155485 -0.04864876 0.018794715 -0.104319856 0.03935477 -0.093284085 -0.10816373
-0.08954202 -0.0005733371 0.057389766 -0.10665405 0.02876018 -0.010675788 0.015122265 -0.12214792
0.05584389 0.008752853 -0.045023993 0.046871573 0.07190272 -0.055658687 0.080083 -0.024913564
0.02987601 0.08564444 -0.07526949 -0.111523725 0.008945081 -0.108107194 0.033710793 0.109913446
-0.09710117 -0.09653472 0.070362225 -0.062482975 -0.009208625 -0.05124779 -0.0504694 -0.094460145
-0.06415874 -0.091459505 0.04462547 -0.013076603 0.005542502 0.09163473 -0.05828726 -0.11065228
-0.090363815 -0.036950905 -0.049248695 0.047171257 0.043345425 0.082463324 -0.089692324 0.07064969
-0.110627554 -0.106389254 -0.11878842 -0.079254664 0.11140324 0.119819805 -0.038084693 -0.104508325
-0.06028875 -0.07320373 -0.122063495 0.053582493 -0.07411543 0.03045722 0.025635693 0.06752397
0.0024860501 -0.077359244 -0.01936054 -0.06330185 0.108782746 -0.08069375 0.033657 0.029910462
-0.099359766 0.08727509 -0.042396776 0.12202955 -0.053137407 0.11083961 0.077749796 0.12151156
0.026032418 0.122196734 0.11165655 -0.03412676 -0.03638123 0.10865559 -0.078761294 0.07094033
-0.11575551 -0.064683095 -0.059627414 -0.01630108 -0.07868658 0.07959609 0.059185576 -0.08922371
0.006824389 -0.112626895 -0.10548852 0.08740157 0.019489795 0.037148744 -0.050442684 -0.09383975
0.047199547 -0.053105462 -0.038832948 0.089560255 0.08782183 0.0070980936 -0.031232134 0.06754546
-0.015997484 -0.021240994 -0.046965703 0.10942356 -0.0934069 0.02118975 -0.08447492 -0.015997604
-0.048393294 0.10282177 -0.08246505 0.10404192 -0.043912947 -0.08420414 0.090377495 0.008435786
0.09957324 -0.06767127 -0.0843399 0.0213456 0.05482006 -0.09153628 -0.051372975 -0.0012834072
0.02301842 -0.051421702 -0.022781178 0.006294653 0.096902296 0.086257935 -0.12359618 -0.10754545
0.09924398 -0.0035751015 -0.024830967 -0.063813984 0.10418971 -0.043725505 0.07086116 0.016152292
-0.05981033 -0.08904615 0.10146928 0.10608299 0.101319596 0.03017588 -0.06179571 -0.1030588
-0.039073557 0.02970557 0.035061806 0.11385231 -0.06380148 -0.119695544 -0.05779363 -0.012237191
0.059788972 0.011731267 0.07594496 -0.06026116 -0.035584316 -0.07863973 0.06194067 -0.030069038
0.004425943 -0.012415573 -0.110241905 0.08486767 -0.051868845 -0.03604035 -0.015997693 0.08922045
-0.092517495 -0.11888836 -0.0064733326 0.014436871 0.06163318 -0.08607453 0.083254814 -0.08043794
-0.07764892 -0.04722227 0.011490643 -0.11139691 0.11116536 -0.008973554 0.099562556 -0.048687145
0.097476706 -0.077635616 -0.07683967 0.030346721 -0.10243485 0.0571329 -0.059166253 -0.088445514
00000000: 302c 82bc 5a45 d6bd 586a d6bc be04 953d
00000010: 40db 9f3c 1237 a7bd 135d d33d 1854 a93d
00000020: 2077 4fbc 0055 44ba b64b ec3d 6077 093d
00000030: a664 b3bd fd74 633d 109d 78bc 2809 af3d
00000040: 9853 2fbd 0059 16bb 0090 62bb da59 d8bd
00000050: cdaa 53bd 40aa 4abc f896 173d 88ae 753d
00000060: fc37 3cbd bc37 bcbd 6ea2 a9bd 8e30 e7bd
00000070: a663 d03d cca4 803d 424c 8fbd 84d3 1dbd
00000080: 60da 32bc 6a35 d0bd c8d2 2ebd 18f9 dcbd
00000090: 3012 d8bd eae5 e9bd 0217 ee3d c043 3dbb
000000a0: 4067 63bc b659 ac3d ec43 47bd 60f7 993c
000000b0: a6a5 d5bd 7832 213d ba0b bfbd f284 ddbd
000000c0: ce61 b7bd 004c 16ba 8811 6b3d 706d dabd
000000d0: 789a eb3c 80e9 2ebc 60c3 773c b028 fabd
000000e0: 90bc 643d 2068 0f3c 146b 38bd 68fc 3f3d
000000f0: bc41 933d 5dfa 63bd 8e02 a43d 8817 ccbc
00000100: 89be f43c 5a66 af3d e426 9abd 8d66 e4bd
00000110: 648e 123c 4e67 ddbd 5414 0a3d 4d1a e13d
00000120: fadc c6bd ffb3 c5bd 121a 903d 26ee 7fbd
00000130: c6df 16bc 34e9 51bd 00b9 4ebd 5274 c1bd
00000140: a865 83bd 1f4f bbbd 32c9 363d 403f 56bc
00000150: e09d b53b fdaa bb3d 9fbe 6ebd aa9d e2bd
00000160: aa10 b9bd d559 17bd 00b9 49bd a636 413d
00000170: f98a 313d 88e2 a83d 9cb0 b7bd c9b0 903d
00000180: b390 e2bd 9ce2 d9bd 5847 f3bd 4550 a2bd
00000190: 6227 e43d 1664 f53d b2fe 1bbd 7608 d6bd
000001a0: 56f1 76bd d6eb 95bd 6dfc f9bd 5179 5b3d
000001b0: d5c9 97bd 6b81 f93c f201 d23c 024a 8a3d
000001c0: 00ed 223b 866e 9ebd ff99 9ebc 66a4 81bd
000001d0: 7dc9 de3d c442 a5bd ecdb 093d c906 f53c
000001e0: 227d cbbd 48bd b23d 3ea8 2dbd a1ea f93d
000001f0: 9ca6 59bd e1ff e23d 493b 9f3d 0edb f83d
00000200: f041 d53c 4842 fa3d 30ac e43d 80c8 0bbd
00000210: 7c04 15bd d286 de3d 9a4d a1bd 2a49 913d
00000220: 3a11 edbd 9278 84bd e03b 74bd d889 85bc
00000230: 6e26 a1bd 4603 a33d 936c 723d ecba b6bd
00000240: 209f df3b eea8 e6bd 5d0a d8bd 98ff b23d
00000250: 10a9 9f3c 4829 183d fd9c 4ebd 0e2f c0bd
00000260: 5054 413d 1d85 59bd 4c0f 1fbd 5e6b b73d
00000270: eedb b33d 2097 e83b 88da ffbc 4655 8a3d
00000280: 280d 83bc 9801 aebc 1c5f 40bd 7619 e03d
00000290: 1e4c bfbd 2096 ad3c 3001 adbd 680d 83bc
000002a0: 0c38 46bd 3894 d23d 70e3 a8bd ee13 d53d
000002b0: 10de 33bd 3873 acbd d617 b93d 4036 0a3c
000002c0: 0eed cb3d 3c97 8abd 66ba acbd f8dc ae3c
000002d0: 008b 603d 6077 bbbd 786c 52bd 0038 a8ba
000002e0: 2091 bc3c 909f 52bd 989f babc 6043 ce3b
000002f0: b674 c63d 00a8 b03d fe1f fdbd ca40 dcbd
00000300: 6e40 cb3d 404c 6abb 506a cbbc e8b0 82bd
00000310: 6a61 d53d 8419 33bd a81f 913d d051 843c
00000320: adfb 74bd d45d b6bd 20cf cf3d 0a42 d93d
00000330: a680 cf3d 6833 f73c 801d 7dbd 7e10 d3bd
00000340: 980b 20bd 1859 f33c f89c 0f3d 662b e93d
00000350: 5aaa 82bd f022 f5bd 03b9 6cbd 807e 48bc
00000360: 48e5 743d 8034 403c 0889 9b3d 68d4 76bd
00000370: dcc0 11bd de0d a1bd 80b5 7d3d 5853 f6bc
00000380: 8007 913b b06a 4bbc 82c6 e1bd 1acf ad3d
00000390: 6d74 54bd 0c9f 13bd 980d 83bc 36b9 b63d
000003a0: d079 bdbd be7b f3bd 401e d4bb a088 6c3c
000003b0: 1373 7c3d d847 b0bd 8081 aa3d a6bc a4bd
000003c0: 6606 9fbd 246c 41bd 4043 3c3c 1024 e4bd
000003d0: aaaa e33d d005 13bc 74e7 cb3d 2c6c 47bd
000003e0: dea1 c73d 6cff 9ebd 1e5e 9dbd b099 f83c
000003f0: 5dc9 d1bd 3004 6a3d 5058 72bd ec22 b5bd

bias f4 [64]
-0.030702144 0.048581086 -0.105222404 0.057877272 -0.02566103 0.099600874 -0.015088428 -0.100763895
-0.0137408795 -0.08951156 0.088652685 -0.12119961 -0.001974039 0.063741304 -0.082947925 0.05861299
0.00015836717 0.019056913 0.1051117 0.08466338 0.020178087 -0.11211421 0.10157366 -0.121324494
-0.05770865 0.072005756 -0.07308442 -0.068460226 -0.101200365 0.05778184 -0.0142241465 -0.024727637
-0.023547575 0.12645902 0.05512135 0.05256437 0.11363296 -0.08719049 0.109003134 -0.021951808
-0.029314488 0.030757235 -0.04246432 -0.11273301 -0.08854954 -0.0786296 0.04692501 -0.102492765
0.11522146 0.03793502 -0.054408416 -0.037438747 -0.030610133 0.106961265 0.0063305097 -0.080184095
0.04686157 0.09034218 0.07075691 0.112859175 -0.12196438 0.11443319 0.049225055 -0.12258593
00000000: 1083 fbbc f6fc 463d d87e d7bd b810 6d3d
00000010: 1537 d2bc 8bfb cb3d 7435 77bc 4d5d cebd
00000020: 6d21 61bc d651 b7bd 8a8f b53d 8037 f8bd
00000030: e15e 01bb cd8a 823d 9ae0 a9bd 2d14 703d
00000040: 5d0f 2639 3e1d 9c3c ce44 d73d ff63 ad3d
00000050: 844c a53c 239c e5bd da05 d03d fa78 f8bd
00000060: e85f 6cbd c177 933d 49ad 95bd e034 8cbd
00000070: 2342 cfbd a7ac 6c3d 650c 69bc 9d91 cabc
00000080: d8e6 c0bc 797e 013e edc6 613d bd4d 573d
00000090: 66b8 e83d ed90 b2bd 093d df3d 47d4 b3bc
000000a0: f024 f0bc 99f6 fb3c 11ef 2dbd 90e0 e6bd
000000b0: 7659 b5bd 8e08 a1bd 7034 403d bae7 d1bd
000000c0: 3bf9 eb3d c061 1b3d 5cdb 5ebd 5f59 19bd
000000d0: 1ac2 fabc 820e db3d 2a70 cf3b 8f37 a4bd
000000e0: ebf1 3f3d 5205 b93d 00e9 903d b622 e73d
000000f0: 76c8 f9bd f35b ea3d 36a0 493d 550e fbbd

weight f4 [4, 64]
-0.050513506 -0.04755704 0.09890035 0.03675723 -0.06889216 -0.018673379 0.099252686 -0.111882485
-0.12628709 -0.13396324 -0.08216433 -0.05669886 -0.017758116 0.042184096 0.03475532 -0.05502611
0.012373367 -0.1073942 -0.08649053 -0.034045637 0.05267882 -0.009041503 0.05642262 -0.10267936
0.0023241788 0.02758983 0.03807472 0.1129598 0.060921002 0.11852529 0.046675134 -0.10033776
-0.059477758 -0.07228981 -0.068362884 0.08793893 0.014925274 -0.08141437 -0.11568961 -0.09396811
-0.124161616 -0.099326275 -0.03585502 -0.027661443 -0.05671805 -0.027443552 0.09763425 -0.00012125075
-0.07038998 -0.12638555 0.066101566 0.11416053 -0.11903412 -0.11220502 0.009683046 0.041523207
0.04768671 -0.09263185 -0.07152038 0.031236317 -0.109259054 -0.095414445 0.090856284 0.0037800665
0.11499716 -0.07118206 0.083153576 0.09636228 -0.047693893 0.13312888 0.017499322 0.047521148
0.01933634 -0.011495339 0.075614974 0.064948335 -0.023724576 -0.11518378 0.089858696 -0.09797223
-0.0960823 -0.038884338 -0.062786326 0.050441045 -0.09156954 0.031380653 0.07264509 0.05636856
0.058443833 -0.07059723 0.10080797 0.07295443 0.04257241 0.06808882 0.03552314 0.020241644
-0.10724928 0.13727587 -0.031545613 0.003410578 -0.100006215 0.11750584 -0.025748614 0.058903098
-0.07143052 0.08664115 -0.0028857377 -0.072678596 0.11056103 0.15186624 0.034222253 -0.07013133
0.06298016 0.057387225 0.05064955 0.118835896 0.11345097 -0.08612037 -0.08080173 0.009345355
0.045047145 -0.07121125 0.06895472 0.021331938 -0.077750176 -0.10164299 -0.03392346 -0.012734909
-0.10041529 0.029667506 -0.06014974 0.008363724 -0.06705794 -0.013700077 0.061825972 0.044744205
-0.0032755034 0.06966938 -0.1350983 -0.11227836 0.054877233 0.079443105 0.10782757 0.021395035
-0.092541076 -0.16332638 -0.0063171037 -0.12457018 0.06677786 0.11539433 -0.11959634 -0.011393562
-0.104665235 0.034040432 -0.11252553 -0.049864218 -0.07053313 -0.07827839 0.066226944 0.07136043
-0.107927635 0.068894446 -0.059904695 0.004175326 0.004248133 0.030363172 0.056132063 -0.00855948
0.11646514 0.06601277 0.057558984 0.030557826 -0.12322421 -0.110220656 -0.024795024 0.07973838
0.020579094 -0.15402713 0.07376053 -0.08922177 0.088047795 -0.11340879 0.041931078 0.10132651
0.06117901 -0.10731542 -0.043907434 -0.091905825 0.09278254 0.049148846 -0.14361113 -0.012369366
-0.030819058 0.101936564 0.1040719 -0.0021939129 -0.05766192 0.049537607 -0.096468195 -0.11535775
0.041328542 0.0010214727 0.07638777 -0.07344359 -0.0025904945 -0.041137084 -0.023194894 0.07721241
0.06797653 -0.022142272 0.1164352 -0.068018205 0.017635772 -0.030112684 0.083809555 0.029519394
0.05103305 -0.0047453954 -0.097452134 0.03560096 -0.06489976 -0.07151877 -0.095051855 -0.07686357
-0.10473484 0.039468266 -0.05181897 -0.09301368 -0.054565836 -0.09824181 -0.06699013 -0.06741881
-0.0018169731 -0.1178072 -0.047871254 0.11498691 -0.031838223 0.061982345 -0.062423434 -0.115799055
-0.0133295 -0.10202458 0.107121944 -0.036390025 0.011126346 0.095841445 -0.026393566 -0.111746214
0.018109951 0.11601059 0.095721625 0.13113013 -0.035317555 0.009518202 -0.04594601 0.10888287
00000000: 40e7 4ebd 2ccb 42bd 448c ca3d c08e 163d
00000010: 5517 8dbd eaf8 98bc fe44 cb3d a522 e5bd
00000020: 6751 01be a92d 09be c645 a8bd 103d 68bd
00000030: 7879 91bc 3bc9 2c3d 985b 0e3d 0f63 61bd
00000040: aab9 4a3c 7ef1 dbbd f221 b1bd 7073 0bbd
00000050: bfc5 573d d022 14bc 681b 673d 8e49 d2bd
00000060: 4051 183b 1104 e23c 3df4 1b3d 7857 e73d
00000070: 4d88 793d 63bd f23d 6d2e 3f3d e27d cdbd
00000080: f39e 73bd ae0c 94bd d701 8cbd 5319 b43d
00000090: 2389 743c 94bc a6bd adee ecbd 5a72 c0bd
000000a0: 7248 febd 936b cbbd b7dc 12bd 409a e2bc
000000b0: 3051 68bd 4dd1 e0bc 77f4 c73d 0048 feb8
000000c0: 9f28 90bd 376b 01be 4260 873d ffcc e93d
000000d0: 29c8 f3bd bfcb e5bd a3a5 1e3c 3d14 2a3d
000000e0: 2453 433d c4b5 bdbd 4779 92bd 4ee3 ff3c
000000f0: 36c3 dfbd a668 c3bd dc12 ba3d feba 773b
00000100: a283 eb3d e6c7 91bd 6c4c aa3d 9659 c53d
00000110: ac5a 43bd f052 083e bd5a 8f3c 89a5 423d
00000120: 3e67 9e3c f256 3cbc 06dc 9a3d a203 853d
00000130: 0b5a c2bc 79e5 ebbd d607 b83d aaa5 c8bd
00000140: ccc6 c4bd 2f45 1fbd 1e96 80bd 459b 4e3d
00000150: d088 bbbd 0089 003d f3c6 943d b8e2 663d
00000160: cd62 6f3d 4895 90bd 6974 ce3d 2269 953d
00000170: 6860 2e3d 2772 8b3d b680 113d ced1 a53c
00000180: 83a5 dbbd 0c92 0c3e f935 01bd 0184 5f3b
00000190: 0fd0 ccbd e7a6 f03d c2ee d2bc 6044 713d
000001a0: 2a4a 92bd ea70 b13d a51e 3dbb 84d8 94bd
000001b0: d26d e23d d382 1b3e a22c 0c3d 04a1 8fbd
000001c0: befb 803d de0e 6b3d e775 4f3d 3c60 f33d
000001d0: fb58 e83d e05f b0bd 617b a5bd 431d 193c
000001e0: 5b83 383d 34d7 91bd 2238 8d3d 51c0 ae3c
000001f0: 7c3b 9fbd 332a d0bd 53f3 0abd 14a6 50bc
00000200: 88a6 cdbd 4509 f33c 935f 76bd 0008 093c
00000210: ac55 89bd 4a76 60bc 3b3d 7d3d b345 373d
00000220: d4a9 56bb d2ae 8e3d 3557 0abe 32f2 e5bd
00000230: f3c6 603d 11b3 a23d b3d4 dc3d a444 af3c
00000240: 2d86 bdbd 083f 27be b5ff cebb a71e ffbd
00000250: d5c2 883d dd53 ec3d edee f4bd 10ac 3abc
00000260: ba5a d6bd fb6d 0b3d c973 e6bd 6c3e 4cbd
00000270: ac73 90bd 6c50 a0bd fea1 873d 6b25 923d
00000280: 2a09 ddbd 8818 8d3d a05e 75bd 2cd1 883b
00000290: ec33 8b3b 30bc f83c bcea 653d 103d 0cbc
000002a0: 4685 ee3d b431 873d f8c2 6b3d 6854 fa3c
000002b0: fa5c fcbd 5ebb e1bd ef1e cbbc e04d a33d
000002c0: 7d95 a83c 4ab9 1dbe c30f 973d e7b9 b6bd
000002d0: 6752 b43d de42 e8bd ecbf 2b3d 4684 cf3d
000002e0: d796 7a3d 30c8 dbbd 48d8 33bd 1f39 bcbd
000002f0: c604 be3d 4d50 493d cc0e 13be e2a8 4abc
00000300: 4078 fcbc 1ec4 d03d a623 d53d c0c7 0fbb
00000310: e82e 6cbd f2e7 4a3d 1e91 c5bd af40 ecbd
00000320: 1e48 293d f0e2 853a 3171 9c3d 9869 96bd
00000330: 49c5 29bb 5c7f 28bd 3803 bebc 8a21 9e3d
00000340: 4737 8b3d b663 b5bc 9475 ee3d 214d 8bbd
00000350: e578 903c e0ae f6bc 58a4 ab3d a8d2 f13c
00000360: 0808 513d 437f 9bbb fc94 c7bd 50d2 113d
00000370: 2aea 84bd 6f78 92bd 8caa c2bd a66a 9dbd
00000380: 387f d6bd 7aa9 213d 2140 54bd f57d bebd
00000390: 6d80 5fbd 0133 c9bd 1f32 89bd e012 8abd
000003a0: 8027 eeba e744 f1bd a614 44bd 427e eb3d
000003b0: cc68 02bd 33e1 7d3d b7af 7fbd 0e28 edbd
000003c0: fa63 5abc 43f2 d0bd c062 db3d b50d 15bd
000003d0: 474b 363c 8548 c43d 5237 d8bc 33db e4bd
000003e0: 525b 943c f696 ed3d b309 c43d fa46 063e
000003f0: 24a9 10bd 3cf2 1b3c e231 3cbd fbfd de3d

bias f4 [4]
0.012679812 -0.074604005 0.0152228605 0.07303305
00000000: fcbe 4f3c fcc9 98bd 4e69 793c 5a92 953d

weight f4 [1, 64]
-0.09758368 -0.11556882 0.121886596 -0.087366626 -0.088228725 -0.087213784 0.016833825 -0.07316423
-0.015911713 0.11220131 0.08968858 -0.004633084 0.1066406 -0.10690335 -0.1047145 -0.12544146
-0.07231495 -0.059413236 -0.07173212 -0.13409501 0.11665788 -0.060581923 0.08683623 -0.053891897
0.12228949 -0.04547857 -0.017504288 0.030412555 -0.051426243 -0.056420542 0.10849397 0.09032854
0.08521856 0.11922683 0.055654023 0.11712154 0.074902214 0.12563685 0.09479836 0.022720935
0.113890335 0.042986866 0.079862155 -0.064268574 0.051383782 -0.013751569 0.0061282045 -0.09599757
-0.04375247 0.081781246 -0.08028875 -0.075524636 0.08539407 0.087122805 -0.15912816 -0.018913122
-0.078799054 -0.108413674 0.0031618888 0.08846052 0.032318875 -0.11412907 -0.023099469 -0.073719166
00000000: f4d9 c7bd 58af ecbd ae9f f93d 46ed b2bd
00000010: 43b1 b4bd 249d b2bd 17e7 893c 21d7 95bd
00000020: 4859 82bc cdc9 e53d a5ae b73d 20d1 97bb
00000030: 6366 da3d 25f0 dabd 8e74 d6bd ba73 00be
00000040: dc19 94bd 4b5b 73bd 4ae8 92bd 3450 09be
00000050: 54ea ee3d c024 78bd 31d7 b13d c0bd 5cbd
00000060: ea72 fa3d bd47 3abd 2765 8fbc c023 f93c
00000070: 53a4 52bd 3a19 67bd 1632 de3d 2bfe b83d
00000080: 1287 ae3d 322d f43d 79f5 633d 6bdd ef3d
00000090: 5566 993d f2a6 003e a425 c23d 4121 ba3c
000000a0: 563f e93d ff12 303d c58e a33d 3e9f 83bd
000000b0: cd77 523d 434e 61bc 1bcf c83b 609a c4bd
000000c0: ca35 33bd ed7c a73d 6e6e a4bd a9ac 9abd
000000d0: 16e3 ae3d 716d b23d 7ef2 22be b1ef 9abc
000000e0: 6661 a1bd fd07 debd b137 4f3b ca2a b53d
000000f0: cc60 043d 80bc e9bd 193b bdbc 13fa 96bd
