models/main_agent_model.pt (torch, 84111 bytes, 7 tensors)

weight f4 [64, 243]
00000000: b39a f63c b0f9 fcbb f5b8 0ebd adc6 d03c
00000010: ced0 463d c2fd c73c 50ca 3bbc 7608 673d
00000020: c3a9 ef38 5dba 5a3d 00a2 d5b9 29a7 a6bb
00000030: 3856 573c ccc2 1dbd a81d 61bd a672 2e3d
00000040: c3b9 df3c c67b a63c 5019 7bbc 6816 063c
00000050: 1ba6 363c 2805 91bb 3fde 04bd 48ea 77ba
00000060: b292 063d f03f b43b 1d17 9a3a 6c93 2c3d
00000070: 53fe 6abc 7d83 3e3d 23a6 56bd 825d 65bd
00000080: d889 76bd d03a 26bd 4873 5fbc 8a5c 17bd
00000090: 2af4 abbc 28f5 513d f82b 0c3d 889f c53c
000000a0: 7822 16bc c0dd 423d 7c72 2dbd 5b91 6bbd
000000b0: 7025 773c c8d5 76bd 1a93 62bd ed39 6fbc
000000c0: 4869 bbbb 6af6 d9bc d2fa 7fbd 4a9b 653d
000000d0: bcb6 94bc 0277 7cbb f0ac 75bd c210 513d
000000e0: d6a1 783d 0e6b 09bd 881c 9dbc 3c32 afbc
000000f0: 9b80 4bbd f01a 1a3c 40b7 983b 5008 043c
00000100: d0d9 febc 9052 383d 40d9 17bb 764b b1bc
00000110: 2280 ae3c 9872 283d edf3 ccbc b6e4 6c3d
00000120: 6d26 313d 0ac3 93bc f847 aebb 70f9 c1bb
00000130: f8c9 6a3c 0274 8ebc d4ed 46bd 13e4 573d
00000140: 1ff8 0c3d c2a9 4abd fd49 623d 29a8 03bd
00000150: 6586 143d 908a 8d3c 885d 40bd 300e ed3b
00000160: d6d7 6abd d050 fd3b 3a48 12bd 0024 6aba
00000170: a4e8 30bc 2aa1 5e3d 2a71 8dbc 34cb c83c
00000180: b891 593c d256 dabc 2079 6e3b 42a3 3fbd
00000190: 8059 64ba eee3 2c3d f040 413d eb97 62bd
000001a0: 6863 5b3c 0009 64bd 3a4d 31bd adbb f63c
000001b0: 2c82 373d 0074 40bb 0d98 27bc fd47 753d
000001c0: 7d24 68bd 60f0 313b e6f7 79bd 70b2 483d
000001d0: 1845 3d3d 10b0 82bd ae97 793d 4d2e 63bd
000001e0: 58a8 4f3c 26b4 1a3d 856f 59bc 4e4d 63bd
000001f0: 5303 f63c a1ae 46bc 0023 a8bb 20fc 1bbd
00000200: 63de 4e3d c0a4 3f3d d02c 2a3c 8013 42bd
00000210: 31e3 18bd 3e50 2f3d 2c1d 833d 3344 fc3c
00000220: 1a4f 4a3d 3b88 713d e036 59bc 14c5 a63c
00000230: 023a 20bd 1ccc 14bd e038 bebb 3209 4dbd
00000240: b093 65bc 8080 b63b 167e 94bc 788e 3f3c
00000250: 5322 533d 66b0 99bc 736c 5f3d c89d 3d3d
00000260: 4c7d 1f3d f03d c6bc 9c33 3b3d 4e67 323d
00000270: f267 0b3d ae82 24bd 2968 18bd e083 9dbb
00000280: 08f2 023c 468e ee3b c0fc 3fbd d0de 2ebc
00000290: d142 06bd 9e23 373d 52ef 733d ea8a 263d
000002a0: 8428 44bc 063b 7abd 9aa5 423d 70e6 07bd
000002b0: 88eb 9b3c 46b8 3f3d 2b01 35bd f4f0 c93c
000002c0: 69c1 b1bb adef 3dbd 5810 a03c 6309 603d
000002d0: 6032 cb3b cc64 83bc f682 5e3d 9854 633c
000002e0: 4b0a 7fbd e77a 04bd c061 0fbb c0b2 f93b
000002f0: 806e 41bd 2c07 9c3c 43c8 823d 5b07 13bd
00000300: 086d 5c3d c67b 5bbd 90b5 77bd 8c52 813c
00000310: 6e0d 58bd 9644 083d 985f 9c3c 1042 2bbd
00000320: d260 373d c031 e73b f140 0abd 00c0 823c
00000330: 6043 293c 80e9 a93c c6f3 5dbd 1d4f 0d3d
00000340: fc03 9ebc 5007 23bd 834d 2d3d da1e 2d3d
00000350: dc1f 103d e28e 1fbd 9d08 dd3c 866c aa3c
00000360: 9e25 143d de73 793d 0775 9e3b 160f 43bd
00000370: 4121 02bd 6a8f 1bbd 20ae dcbc f877 59bd
00000380: 8256 fc3c 852d 83bd 96e9 023d 5199 42bd
00000390: 90e7 a33c 80e5 683a 49a4 04bc 58df a8bb
000003a0: 4876 73bc b857 1c3a 4076 563d aa78 213d
000003b0: c0bc 58bd 70ee dabc f023 5f3d 98d3 273d
000003c0: c2c9 63bd 83a6 e0bc e265 58bb 98f6 d1bb
000003d0: 32e6 47bd ea01 b2b9 2c22 bf3c ca04 2bbd
000003e0: 9715 7dbd 80e2 05ba 38a6 c23c 4745 92bd
000003f0: ba7d 423d 1a87 40bd 71fa 563d d054 623c
0.030103063 -0.0077201948 -0.034844358 0.025485361 0.048538975 0.024412993 -0.011461809 0.056404553
0.00011428029 0.053400386 -0.00040747225 -0.005085845 0.013143115 -0.03851585 -0.054959923 0.042589806
0.027310258 0.020322692 -0.015325859 0.008184053 0.011148001 -0.0044256635 -0.032438513 -0.0009457213
0.032854743 0.005500786 0.0011756156 0.04213278 -0.014342862 0.046512116 -0.052404534 -0.05599738
-0.06019005 -0.04058343 -0.013638325 -0.036953487 -0.02099045 0.05125919 0.03422162 0.024123922
-0.009163491 0.04757476 -0.04234551 -0.05751167 0.015084609 -0.06026247 -0.05531607 -0.014601213
-0.0057193376 -0.026606757 -0.06249506 0.0560563 -0.01815354 -0.0038523083 -0.05997938 0.051041372
0.060701214 -0.03354936 -0.019178644 -0.021386258 -0.049683195 0.009405836 0.004660517 0.0080586225
-0.03110972 0.045000613 -0.0023170263 -0.021642428 0.021301333 0.04112491 -0.025018657 0.057835303
0.043249536 -0.018037338 -0.005318638 -0.005919628 0.01433038 -0.017389301 -0.048566654 0.052707743
0.034416314 -0.0494783 0.055246342 -0.032142792 0.03626098 0.017277986 -0.0469642 0.0072343573
-0.057334743 0.007730581 -0.035713412 -0.0008931756 -0.010797653 0.054352917 -0.017265875 0.024510957
0.013279371 -0.026652727 0.0036388114 -0.046786554 -0.00087108463 0.04220956 0.04718107 -0.05532066
0.0133903995 -0.055672646 -0.04328654 0.030118788 0.044801876 -0.0029366016 -0.010229123 0.059883106
-0.056675423 0.0027151331 -0.06102743 0.048998296 0.04620847 -0.063812375 0.06093567 -0.055464078
0.012674414 0.03776946 -0.013271217 -0.055493645 0.030030882 -0.012126596 -0.0051311255 -0.038082242
0.050505053 0.046787977 0.010386661 -0.047381878 -0.03732604 0.042801134 0.064020485 0.030794239
0.049391843 0.05896781 -0.013257712 0.020357646 -0.03911782 -0.036327466 -0.00580512 -0.050057597
-0.014012262 0.0055695176 -0.018126529 0.011691682 0.051546406 -0.018760871 0.054546785 0.04629305
0.03893785 -0.024199456 0.045703515 0.04355555 0.034034677 -0.04016369 -0.03720871 -0.0048069805
0.007992275 0.007280144 -0.0468719 -0.01067324 -0.032778565 0.0447117 0.059554406 0.040659823
-0.01197255 -0.061091445 0.04752121 -0.033178747 0.019033208 0.046806596 -0.044190567 0.024651028
-0.0054246676 -0.04637115 0.019539043 0.054696452 0.0062010735 -0.016039275 0.054324113 0.013875149
-0.062265676 -0.03234377 -0.0021878332 0.0076201856 -0.04722452 0.019046389 0.06385853 -0.035895687
0.053814918 -0.053584836 -0.060475886 0.015786432 -0.052747183 0.033268534 0.019088551 -0.04181105
0.04477007 0.007055491 -0.03375334 0.015960693 0.010331005 0.020741224 -0.05418756 0.034499276
-0.01928901 -0.039801896 0.04231025 0.04226575 0.035186633 -0.038954623 0.026981646 0.020803701
0.036168687 0.060901515 0.004835728 -0.04762181 -0.031769995 -0.037978567 -0.026938498 -0.053092927
0.030802969 -0.064051665 0.031961046 -0.047509495 0.020007879 0.0008884296 -0.008095809 -0.005153578
-0.014859743 0.0005963999 0.052358866 0.039421715 -0.05291438 -0.026725024 0.054477632 0.040973276
-0.055612333 -0.027423149 -0.0033019711 -0.00640757 -0.048803516 -0.00033952232 0.023331724 -0.041752614
-0.061788168 -0.00051072985 0.0237609 -0.0714212 0.047483183 -0.047003843 0.052484933 0.013814166

bias f4 [64]
00000000: 000f acbc bcae 89bd 26ae 703c 88d5 75bd
00000010: 40c3 1c3d 4a3f 1cbd c8cc c33c 5585 b3bc
00000020: 7ed0 57bd ab06 80bd 60b0 1c3d 279b 443d
00000030: 4607 74bc 343c 033d 0688 7bbd 31e1 723d
00000040: 270c 283d 8570 573c 4244 fe3c 8145 26bd
00000050: 188e 023d fe1b 13bc 8a17 24bd 393d b9bc
00000060: a3a6 403d 08d8 0a3d 2ebe 753d 76c7 68bd
00000070: 3ea0 c8bc a175 873d ecdd 03bc cb1a 3f3d
00000080: 95c4 073d f0ca 79bb 5795 55bd 2692 c73b
00000090: 2a72 5a3d d9eb cc3c 1287 c93c 96a1 533d
000000a0: 4567 4ebd 049a 95bc 0085 2bbc 7c32 0e3d
000000b0: 18c6 b43c 71ad f1bb 0216 743d 27d3 13bd
000000c0: f575 11bd 9af4 423d ca95 20bd ddff 7abd
000000d0: 7ea8 0c3d 482c b3bc 6a1b e4bc 7581 acbc
000000e0: ef33 bc3c 0c4d 653b 70cf ce3b d22f de3c
000000f0: 0bca 42bd 6acd 1c3d 979d 5e3c caa0 70bd
-0.021003246 -0.06722781 0.014689958 -0.060018092 0.038272142 -0.038146295 0.023901358 -0.021914164
-0.052689068 -0.06251272 0.03825414 0.047999527 -0.014894312 0.032039836 -0.06140902 0.05929679
0.041027214 0.013149385 0.031038407 -0.040593628 0.031873792 -0.008978842 -0.04006151 -0.022612201
0.047033917 0.03389743 0.059995823 -0.056830846 -0.024490472 0.06614233 -0.008048516 0.04665641
0.03314646 -0.0038115345 -0.052144375 0.0060904203 0.05333153 0.025014805 0.02460054 0.051667772
-0.050391454 -0.018261917 -0.010468721 0.034716114 0.022067115 -0.007375412 0.0595913 -0.036090042
-0.035512883 0.04759655 -0.03920535 -0.061279166 0.034340374 -0.0218717 -0.027845103 -0.021057824
0.022973983 0.003498855 0.0063113496 0.027122412 -0.047555964 0.038281836 0.013587377 -0.05874709

weight f4 [64, 64]
00000000: 2afd d83d 12ce e73d fa0d 86bc ac5a 883d
00000010: 139b d0bd a281 d73d 569f d93d ad86 d1bd
00000020: 1c44 5c3d 1354 e7bd 633b 02be 56c0 873d
00000030: 00fc d9bd 8e47 863d 2692 643d 5bfd 5fbd
00000040: 464f ccbc b4f6 c7bd 4890 aebd 274a 65bc
00000050: 0019 833c bc5b 8c3d 50f8 d93c c301 0b3d
00000060: 3b03 bf3d bdc1 403d 6e5e cc3d 24da b43d
00000070: 1a91 6c3d 7f9d fb3c ff14 a03d e2ac ea3d
00000080: c780 edbd 6023 9cbd f4a7 b23d f440 e8bd
00000090: f2bd 653d f679 443d 9c7c 113d 0d9f dcbc
000000a0: b373 f13d f02a c2bd 40c0 01bd 7832 97bd
000000b0: fe24 d63d 6375 09bd 228a 8d3d 98e8 843d
000000c0: b9ca 813d eb07 05be 8d06 6a3d 8da9 643d
000000d0: b865 b53b 2622 773a 2a75 d3bd 4905 523d
000000e0: 4280 4fbd e49e 32bd 1421 30bd b043 d03c
000000f0: 2d8c 90bd 2f69 e6bd 08db 36bc a856 e3bd
00000100: a69e 243d 4f4e c03c 1f4b de3d 33a7 733d
00000110: ca8d eebc b877 37bd b091 d73b b961 f73d
00000120: ba9a 093e 50a6 e53c 1bea 3cbd dd6a e03b
00000130: 68f6 983c 002e 223b ae22 983d d65b c9bd
00000140: cb7f 043e ec20 343d 939c e9bd 7bfb ce3d
00000150: 93f6 733d 395c e5bc 6afc bbbd f304 bd3d
00000160: 508b ae3d f711 b4bd 1d13 e83d d482 22bd
00000170: 6c70 84bc bd43 fe3d d737 173d 3b4e 073e
00000180: 0c74 a4bd e6b5 8abd 83b9 9e3d 748a 8a3b
00000190: 531a 953d 0017 b53c f775 83bb 60b7 9fbd
000001a0: 8b61 b13d f020 d03d bc54 1ebd f4d0 b9bd
000001b0: 56fa 983d 6ed1 bfbd bcc6 8dbd 7833 253d
000001c0: e43d ae3c 199c cfbd de1f d0bd debf cb3d
000001d0: efec cbbd daa5 1fbd 784f a4bd 6aa2 d23d
000001e0: f663 70bd 57b3 2dbd 6490 463d 4095 e9bd
000001f0: c6b3 863d be9f ef3c 8c96 80bd 9317 e0bd
00000200: 02f8 cb3d 6617 c73d 76ea b9bd fcd7 33bd
00000210: 3081 33bd 1aea c43d 4057 a43c c8b6 083d
00000220: 2047 34bc 20ac 25bd c063 91bc 903f c63c
00000230: 7211 f2bd ae0c d8bd c0d7 b0bd 0845 58bd
00000240: a883 9fbc 9006 023d eed1 dabd d325 783d
00000250: 4dc1 673d 0c24 143d bd2d 70bd 102a 36bd
00000260: 68fd 353d f6ad 8dbd 00d2 ee3c e088 fb3c
00000270: b814 e4bc 08a5 9dbd 1cbb 2a3d 8000 083d
00000280: 32d3 e2bd 434b 70bd 1077 a03c 64a7 a03d
00000290: 6394 d53d 70d2 62bd 884b d0bd 0053 963b
000002a0: 6027 1b3c 2215 aa3d 22d4 d03d 606c a73d
000002b0: c8b7 453d c2f6 9cbd 44a8 af3d 50d9 5cbd
000002c0: e6ee 86bd c357 533d 0440 a13d 7874 e9bd
000002d0: 44b2 ba3d 645b 823d 1a9c b23d 7216 febd
000002e0: f832 98bc 8083 95ba a852 493d 729c d9bd
000002f0: f881 063d 0882 bebc e2b6 e9bd 0ab3 d9bd
00000300: 20eb a4bb 6679 debd 5ee7 a9bd 1343 cdbd
00000310: 48c7 2c3d 7462 80bd 00c0 01b7 003a 943d
00000320: a024 09bc 2825 373d 2247 fdbd c65e f43d
00000330: 8013 dfbd a2ee f5bd 2877 ed3d d87f b0bc
00000340: b326 e23d 0073 e0ba f607 bebd f818 e9bd
00000350: 7247 b4bd 40a6 9abc 60fc dbbd b8e2 f7bd
00000360: 3202 9ebd e2c0 d8bd 7044 f4bc 82cd f6bd
00000370: 0c3c 253d c6f4 e4bd e44c 9ebd c807 c0bd
00000380: 82c5 e63d f44c 163d 36c8 dd3d f0d3 63bd
00000390: 78c6 a83d 72dd cfbd f664 cfbd 7ca0 b8bd
000003a0: 60f7 90bd 00e5 cebb 82ba 983d 9435 a23d
000003b0: 887c c13d e03c 7b3d 2033 c0bb 583a fb3c
000003c0: 549a b4bd 14bc 053d 2067 31bd 7342 da3d
000003d0: 02d9 e3bd d430 49bd b086 0f3c 9040 5bbd
000003e0: ec2c 88bd 8661 833d 78d2 89bd 6d54 edbd
000003f0: 9886 b4bc 68ea 3c3d 50f8 15bc 6d85 d93d
0.10595162 0.11318602 -0.016364086 0.06657919 -0.10185828 0.10522772 0.10626094 -0.102307655
0.05377589 -0.11295333 -0.12717967 0.06628482 -0.10643768 0.06556617 0.05580344 -0.054684978
-0.024940144 -0.09763852 -0.08523613 -0.01399473 0.016003132 0.068534344 0.026607662 0.033937227
0.09326788 0.047059763 0.099789485 0.088306695 0.057755567 0.030714748 0.07816505 0.11458756
-0.11596828 -0.07623935 0.08723441 -0.11340514 0.05608935 0.047967874 0.035519227 -0.02693131
0.11789646 -0.09480846 -0.031677485 -0.07382673 0.104562744 -0.033559214 0.06911112 0.06489676
0.063374944 -0.12991302 0.057135154 0.05582576 0.0055358075 0.0009427391 -0.10325082 0.05127457
-0.050659426 -0.04360856 -0.043000296 0.0254229 -0.070579864 -0.11250531 -0.01116062 -0.11100513
0.04019036 0.02347484 0.10854172 0.059485625 -0.029120345 -0.044791907 0.0065786466 0.12079186
0.1343793 0.028033406 -0.046121698 0.0068486766 0.018672183 0.0024746656 0.074284896 -0.098319694
0.12939374 0.04397671 -0.11406817 0.1010656 0.059561323 -0.027998077 -0.091790035 0.092294596
0.085226655 -0.08792489 0.113317706 -0.03967555 -0.016166888 0.12415264 0.036918487 0.13213436
-0.08029947 -0.067729756 0.07750227 0.0042279307 0.072804116 0.022105694 -0.0040118652 -0.07798648
0.08661183 0.10162532 -0.038655028 -0.09073058 0.07469623 -0.093661174 -0.06922671 0.040332288
0.021269746 -0.10137195 -0.10162328 0.09948705 -0.09957301 -0.038976528 -0.0802297 0.10284884
-0.05868908 -0.04240736 0.048477545 -0.1140542 0.06577258 0.029250976 -0.062787145 -0.109419964
0.09959413 0.0972126 -0.09077923 -0.04390715 -0.043824375 0.09614964 0.020061135 0.03337744
-0.011003286 -0.040447354 -0.01774776 0.02420023 -0.11819734 -0.105492935 -0.08634901 -0.05280021
-0.019471958 0.03174454 -0.10684572 0.060582947 0.05658083 0.03616719 -0.05863737 -0.044473708
0.04443112 -0.06917946 0.02915287 0.030704916 -0.02784191 -0.07697493 0.041682348 0.0332036
-0.110754386 -0.058665525 0.019588023 0.07844427 0.10428693 -0.05537647 -0.101706564 0.004587531
0.009469837 0.08304812 0.10196711 0.08174968 0.04827097 -0.07664253 0.08577016 -0.053918183
-0.06588535 0.051597368 0.07873538 -0.11399168 0.09116033 0.06365088 0.0872118 -0.12406625
-0.018578991 -0.0011406988 0.049151093 -0.10625543 0.03283879 -0.023255363 -0.11411835 -0.10629852
-0.005032912 -0.10862999 -0.08296083 -0.10022559 0.042182237 -0.062687784 -7.733703e-06 0.07237625
-0.0083705485 0.04471317 -0.12367083 0.11932139 -0.10892391 -0.12008406 0.11594993 -0.021545336
0.110425375 -0.0017124116 -0.09278862 -0.113817155 -0.088026896 -0.018878102 -0.10741496 -0.1210379
-0.077152625 -0.105836645 -0.02981779 -0.12050916 0.04034047 -0.11179499 -0.077295095 -0.09376484
0.112681404 0.036694482 0.10829203 -0.05562204 0.0824098 -0.10149659 -0.10126679 -0.09014985
-0.07078433 -0.00631392 0.074574485 0.079203755 0.094475806 0.06133735 -0.0058654696 0.030667469
-0.08818498 0.03265007 -0.04331124 0.106572054 -0.11125375 -0.04911883 0.008760139 -0.05352837
-0.06649193 0.064150855 -0.06729597 -0.115883686 -0.022036836 0.046121985 -0.009153441 0.10621152

bias f4 [64]
00000000: 3e14 053e 7c37 a83d f0fa 96bd 30f1 cabc
00000010: 929c 2f3d 48c1 b5bd 419d 82b9 5c60 323d
00000020: 0208 7abd dbe2 0dbc 041c 02bd da00 cd3c
00000030: 2aef abbd a5ef bb3d 73e6 5cbd ce9a 183b
00000040: 7634 94bc 3c7f a2bd 1204 733d 86e6 f13c
00000050: aba9 69bd 42a9 3a3d a02c 23bd 9583 8cbd
00000060: a228 85bc 10bd c7bc df16 013e 1d72 64bc
00000070: fc3a 1f3c 6306 7fbd 486b e43c a8ce 96bd
00000080: 17d9 763d 0bbc d73d d5db d03d 688b aabd
00000090: 7342 e8bd b23c b1bd 1398 b9bd d5af da3d
000000a0: f404 84bb 1271 b53d 0b60 98bb 74a9 313d
000000b0: 98d7 87bd 168c 393c ca29 e4bd 0043 f4bd
000000c0: ea2d abbd 1bcf ac3d e129 f43d 99b5 e83c
000000d0: b598 f53d 1164 ca3d b427 4dbd c851 af3d
000000e0: 13d8 983d 74a7 c9bd dd4b 00be d84d cabd
000000f0: e1da c5bc 00fd abbd b217 8e3d c826 503b
0.12996003 0.08213708 -0.07372081 -0.02477321 0.042873926 -0.08874756 -0.00024912696 0.043548927
-0.061042793 -0.008660044 -0.031765 0.02502482 -0.08395226 0.09176568 -0.05393071 0.002328563
-0.018091422 -0.07934424 0.059330054 0.029528867 -0.057046574 0.045571573 -0.03983748 -0.06861035
-0.016254727 -0.024382144 0.12606381 -0.013943222 0.009718653 -0.06226195 0.027883187 -0.07363635
0.060265627 0.10533913 0.1019818 -0.08327371 -0.11340799 -0.08654155 -0.09062209 0.106780685
-0.004028911 0.08859457 -0.004650121 0.043374494 -0.06632918 0.011324903 -0.11140783 -0.11926842
-0.08358367 0.0843794 0.1192205 0.028406905 0.11992017 0.098823674 -0.050086692 0.085605204
0.07463088 -0.09846392 -0.1252894 -0.09878129 -0.024152221 -0.08397865 0.06938113 0.0031761397

weight f4 [4, 64]
00000000: 2de8 a8bd 9410 d63a 8a9c c33d f01f ffbd
00000010: 1b17 c1bc bb93 c33d 84ed 953d 1b77 4dbd
00000020: ed49 abbd fa1d e4bd c85e 8abc ab23 0f3d
00000030: bdde d9bd 0779 d73c 283a 9c3c acb8 a53c
00000040: 20e6 83bd 6ab1 f9bd b2d0 b93d 3f51 89bd
00000050: edc4 d13d f0a6 d5bb 4288 d6bd 361e 88bd
00000060: 101a d5bc 6de4 d43d 3ef2 803c feda 9a3b
00000070: 4af1 713d 30b9 f0bd c086 d33d 56b8 d23d
00000080: 901a 283d 2b7a 933d 9b16 0abd 62dc bfbd
00000090: a047 2abc 4e6f d03d 68e5 833d b9c8 a93d
000000a0: 9c13 2e3d 4bb6 5d3d 06e7 f8bd 2d8d 52bd
000000b0: 80ca 8ebd 9a9e 0e3d cd3a 3fbd 083e 87bc
000000c0: 232e d73d 128f dbbc 0410 473d 5f84 debd
000000d0: 1386 19be 29bd adbd 9079 febd c94e ca3d
000000e0: 0789 76bd 6335 5a3d 5098 973c 5a47 f8bd
000000f0: 553b e7bd 5f16 80bd dfc8 0bbe af44 c63d
00000100: 93ff d63d e807 1f3c 6887 9c3c 5605 90bd
00000110: 809e d83d 5fca a13d 1e58 b3bb fffe d9bb
00000120: 07d7 023e 7c3e 3cbd 3095 f2bd 6114 ccbd
00000130: 608f 173d af6f b1bd 78a5 b9bc 2353 c7bd
00000140: 4625 1b3e 9c4f 493d 4ed9 073e ba09 173e
00000150: e3d1 75bd a088 a93c a008 133d 52b1 493c
00000160: b2cb 153d 008d d33c d929 163e eadc c43d
00000170: 53f5 163e 7419 b4bd 30eb 33bd b41c a43d
00000180: c8e9 9c3c 953e 3c3d 7372 523b 08ca b63d
00000190: 2cbe 9d3d 8883 9d3c d2d5 a03d 2039 4ebc
000001a0: 4364 44bc 8412 81bd 1d89 1e3e 46d6 b4bd
000001b0: c8b9 ebbc b1dd dcbd d7af a5bd f611 c2bd
000001c0: 60c1 20bd f2b6 c2bd 24dc 9dbd 6727 1a3d
000001d0: 3a34 b9bc a3af 113e fe20 ea3d f6c7 403c
000001e0: 5203 ea3d 70bb b33d 6ee6 afbd 8083 79bd
000001f0: 3cad 94bd 1a55 56bd c468 e23d f16f 033d
00000200: d2d2 11bc c74b d7bd a8a9 d9bc 4c5e 2d3d
00000210: 21eb cd3d 3b24 9a3d 6e55 973c 9529 d43d
00000220: 5f3c 843d 9db6 e23d d8bb 613d 2bf1 6ebc
00000230: 86a7 a8bd 425a 4c3c 80b6 9abc 2503 a4bc
00000240: 2d92 b0bc 6ebc ffbd 315c 0ebd f047 8c3d
00000250: 4925 ef3d 0ffe ecbd 08ff 7c3d 8c00 f7ba
00000260: 943c 68bc 5c23 aebd 1b9c b2bd c15c 733d
00000270: 5380 fbbd f834 8abc f8d1 00bd 6247 cf3d
00000280: a229 dfbd ba20 0dbe 72dc 833c f8d1 cfbc
00000290: 0cdd 413d 0c8b a6bd 4220 803c 5947 06be
000002a0: 6873 44bd 2101 48bc 0ef2 c63c c2ea dcbd
000002b0: 8670 803d 60d8 a43d 3b2a 6cbb 2aed a53d
000002c0: c2a2 e73d 9007 ecbd e575 f8bd 6d90 85bd
000002d0: 80f5 0fbe 81a0 0dbd 43b5 89bd 7fc0 0bbe
000002e0: cc3b 963c 1663 be3d dcf0 c43b 802b 03bc
000002f0: df27 d53d 7481 b73c 8df1 7b3d 9abb 58bd
00000300: a542 53bd 0765 b33d 7088 623d a0e7 61bd
00000310: 4859 133d fe88 07bd 12b3 8f3d 03b1 263d
00000320: a17e 3bbd 3021 af3a 38fe 2b3d 38d7 f33d
00000330: a4ed 933d 6c21 4f3d ddac ec3d 1f36 e33d
00000340: d1fe 603c e2b3 d3bd 8e7f 753d ff22 75bd
00000350: 3cf9 a33b 3ab4 683d 60c1 a63d dec7 59bd
00000360: 0850 8f3d a220 dc3d 34fd 453d ca53 7c3d
00000370: 0c5b e33d 76e3 f93d e8b9 0c3d 3813 ecbc
00000380: ae90 b63d d6cc 0e3d 0e2c 4a3d 0caa 1abd
00000390: 6308 f3bd cadb bb3d 70d6 98bd 51dd 843d
000003a0: 645c 1dbd 6618 dd3d b434 a9bd a8f1 f8bd
000003b0: 6d77 dd3d f857 723d e548 483c e852 3d3d
000003c0: 72e1 a33d bd5b 69bd e3a1 f23c b7e4 8dbc
000003d0: 5a1e 98bd 34ce 9bbd badf edbd dc43 8f3c
000003e0: 8381 b83d 103a 103d 95c0 6c3d 92dc aabd
000003f0: ce98 36bc 7ea0 b2bd caa4 c8bc 2e4a 583d
-0.08247409 0.0016331845 0.09551342 -0.124572635 -0.023570588 0.09549662 0.07320693 -0.050162416
-0.083637096 -0.1113853 -0.016890898 0.034946125 -0.10638187 0.026302828 0.0190707 0.02022966
-0.06440377 -0.12192042 0.090730086 -0.067049496 0.10242639 -0.0065201446 -0.10475208 -0.06646387
-0.026013404 0.10395131 0.01574051 0.004725813 0.059068 -0.11754072 0.10328436 0.102890655
0.041040957 0.07201036 -0.033712965 -0.093682066 -0.010393053 0.1017748 0.0644024 0.08290238
0.04249917 0.054128926 -0.12153439 -0.051404167 -0.069722176 0.034819223 -0.046686936 -0.016509071
0.10506847 -0.02680162 0.048599258 -0.108650915 -0.14992552 -0.08483345 -0.1242553 0.09878308
-0.060189273 0.05327357 0.018505245 -0.12122984 -0.112906136 -0.06254267 -0.13650845 0.09681069
0.10497966 0.009706475 0.019107535 -0.07032268 0.105771065 0.07899927 -0.005473151 -0.0066527124
0.12777339 -0.045958027 -0.118448615 -0.099648245 0.037001967 -0.0866388 -0.02266191 -0.09732654
0.15150937 0.049148187 0.13266489 0.14749804 -0.060014617 0.02069503 0.035896897 0.012310343
0.036571212 0.02582407 0.14664401 0.096124485 0.14742021 -0.08793917 -0.043925464 0.08013287
0.019154444 0.04595812 0.0032111674 0.08925253 0.07702288 0.019227758 0.07853283 -0.012586862
-0.011986795 -0.0630236 0.15481992 -0.08829932 -0.02877511 -0.10784472 -0.080901794 -0.09476082
-0.039246917 -0.0950755 -0.07708004 0.037635233 -0.022607911 0.14227156 0.11432074 0.011766424
0.114264145 0.08775985 -0.08588873 -0.060916424 -0.07259604 -0.052327253 0.11055139 0.032089178
-0.008900361 -0.105125 -0.026570156 0.042326257 0.10054613 0.07526442 0.018473353 0.10359494
0.06456827 0.11069987 0.055110782 -0.014583866 -0.082350776 0.012472691 -0.01888585 -0.02002103
-0.021554077 -0.12487112 -0.03475589 0.068496585 0.116770335 -0.11571895 0.061766654 -0.0018844767
-0.014174599 -0.08502838 -0.08721181 0.05941463 -0.12280335 -0.01687096 -0.03145024 0.10121037
-0.10896613 -0.13782015 0.016096327 -0.025368676 0.047329947 -0.0813199 0.015640382 -0.13113154
-0.047961622 -0.0122073 0.024285343 -0.10786964 0.06271462 0.08049083 -0.0036035914 0.08101876
0.113103405 -0.1152488 -0.121318616 -0.06521688 -0.14058495 -0.034576897 -0.06724026 -0.1364765
0.01833906 0.09296243 0.006010158 -0.008005977 0.104079954 0.022400595 0.061509658 -0.052913286
-0.05157723 0.08759504 0.0553059 -0.055152535 0.035973817 -0.03308963 0.07016577 0.040696155
-0.04577506 0.0013361331 0.04199049 0.11906284 0.07223061 0.050568983 0.115564086 0.11094307
0.013732628 -0.10337044 0.0599361 -0.059847828 0.0050040763 0.056812502 0.08142352 -0.053169124
0.069976866 0.10748412 0.048337176 0.061603345 0.1110135 0.12201588 0.03435698 -0.028817758
0.08914314 0.034863316 0.04935842 -0.037759826 -0.11866834 0.09172781 -0.07462776 0.06487525
-0.03841819 0.10795669 -0.082620054 -0.12155467 0.10813794 0.059165925 0.012224411 0.046221644
0.08001985 -0.056972254 0.02961821 -0.017320974 -0.07427664 -0.076076895 -0.11614938 0.017488413
0.090090774 0.035211623 0.057800848 -0.08342852 -0.01114483 -0.08722018 -0.02449264 0.05280512

bias f4 [4]
00000000: 6d75 61bd 39fd 043e fa95 0d3c 3a2f b5bd
-0.055043627 0.12987222 0.008641714 -0.088468984

weight f4 [1, 64]
00000000: 0f43 753d a7c6 0abd 2019 a53b d019 07bd
00000010: 42d6 65bd 69d9 74bd 31e1 f63d 7f44 453d
00000020: 76ac 10bd 3380 413d b0b8 683d 522c d93d
00000030: 4ae3 9f3d f775 f6bd e3f9 683d 241c 163d
00000040: cc05 ccbc 801b 7c3d d22a d73d ea7a e43c
00000050: 0787 093d acd7 2b3d 4091 debd b0ec 653d
00000060: c89b bcbd 537b cfbd 63d0 a1bd 0eef d73d
00000070: b4e4 c2bd 9e9d a6bd 68f8 92bd 6098 e83c
00000080: db88 a0bd e419 bcbc 343f 4ebd b870 d1bc
00000090: 6c77 ca3d 98ad f83d 5cdf ebbc 9631 383e
000000a0: 2a3b d9bc 906c a63c c002 f3bc baaa a6bd
000000b0: 80ef 6c3d cfea a63a f10e 9a3d d098 20bd
000000c0: a8ef c03d 2d60 d4bd 4fd7 823d 4226 a83c
000000d0: 34da 8d3d 77c6 5fbd e0e3 5d3d 8c11 ccbd
000000e0: 8032 4d3c f0dd 063c c729 34bc 281e 95bd
000000f0: 7e8e ba3d a83d 07bd 5e56 043d a70f a8bd
0.059878405 -0.033880856 0.0050383955 -0.0329836 -0.056112535 -0.05977765 0.120546706 0.048161026
-0.03532072 0.0472414 0.056816757 0.106041566 0.07807024 -0.12034219 0.056878936 0.03664793
-0.024905108 0.061549664 0.10506214 0.027890641 0.033576038 0.041953728 -0.10867548 0.056133926
-0.092094004 -0.10130944 -0.07901075 0.10543643 -0.09516278 -0.08135532 -0.07176286 0.02839297
-0.07838603 -0.022961564 -0.050353244 -0.025566444 0.09886059 0.121424854 -0.02879303 0.17987666
-0.02651747 0.020315439 -0.029664397 -0.08138032 0.057845592 0.0012734773 0.07522381 -0.039208233
0.09420711 -0.103699066 0.06388723 0.020526055 0.069263846 -0.05463263 0.054172397 -0.09964284
0.012524247 0.008231625 -0.010996289 -0.072811425 0.091092095 -0.033017784 0.03230893 -0.082061104
