models/main_agent_model.pt (torch, 84111 bytes, 7 tensors)

weight f4 [64, 243]
000000 ac 3b 42 3d bd fc 67 3d 98 7f 91 3c 18 49 37 bd
       0.04742019 0.056637514 0.017761037 -0.044747442
000010 ed 2d e5 3c e7 d2 a8 bb 72 40 47 3d 20 24 cf 3b
       0.027976 -0.0051520946 0.048645444 0.006321445
000020 ba c3 b6 bc a6 54 36 bd 74 f7 46 bd 3b a6 24 bd
       -0.022310127 -0.04451432 -0.048575833 -0.040197592
000030 46 cd 7a 3d 24 e0 24 3d a3 55 48 bd 88 6d b0 3c
       0.06123092 0.04025282 -0.048909795 0.021536604
000040 3c bc 16 bc c6 d5 52 3d 7e 3d 0d bd 58 e2 37 bd
       -0.009200152 0.0514734 -0.03448247 -0.044893593
000050 73 9f f2 bc 8d 21 d0 3c 52 f1 02 3d 15 02 60 bd
       -0.029617047 0.025406623 0.031968422 -0.054689486
000060 24 6d c0 3c cc d4 2e bc 87 07 49 bc 3d e8 46 bd
       0.023489542 -0.010670852 -0.012269861 -0.048561323
000070 f0 e1 40 bd 32 a0 25 bd 02 bf 56 3d 0a ce 5f 3d
       -0.04709047 -0.040435977 0.052428253 0.054639854
000080 10 40 1c bd 80 0e 32 3a 9a 3b 0a bd 0c d6 15 3d
       -0.038147032 0.0006792322 -0.033748247 0.036581084
000090 f2 20 b2 3c 60 e7 9f 3c 80 10 22 ba 75 ef 7c bd
       0.021744225 0.019519508 -0.0006182268 -0.0617518
0000a0 98 eb 67 bc 2a e6 64 bd ae b6 82 bd ea 67 21 bd
       -0.014155291 -0.055883564 -0.063825 -0.03940574
0000b0 b4 51 ad bc ba bf 77 3d 40 90 b4 bc e0 af 13 bb
       -0.021157123 0.06048558 -0.02204144 -0.002253525
0000c0 9d fc 0e 3c e8 80 41 bc 93 f3 62 bd a8 2b 24 3d
       0.00872722 -0.011810519 -0.05540807 0.040080696
0000d0 70 71 e9 3b d0 ef a0 3c 70 eb 1c 3d 65 a1 7d bd
       0.0071241185 0.019645602 0.03831047 -0.061921496
0000e0 65 2b 54 bd cb de 59 3d 7a d6 56 3d f3 59 65 bc
       -0.051799197 0.053190988 0.052450635 -0.013998496
0000f0 da ea b0 3c 0d 9c 66 bd 18 5c 3c 3c 32 ec 19 bd
       0.021596361 -0.056301165 0.011496566 -0.03757877
000100 5a 65 34 3d 83 63 fc 3c 34 dd 16 bc 8a 4c 5a bd
       0.04404197 0.03080917 -0.009208012 -0.05329565
000110 64 e7 ba bc ee c4 52 bd 9e 97 82 bd 38 72 2c bc
       -0.022815414 -0.051457338 -0.06376575 -0.010525279
000120 4e 27 37 bd a0 22 13 3c c2 f6 3b 3d 89 6c 10 3c
       -0.04471522 0.008980423 0.045889623 0.008814939
000130 7b d2 11 bd ee 42 19 3d 60 99 95 bc ee ef be bc
       -0.03560112 0.037417345 -0.018261611 -0.023307767
000140 27 36 02 bc 20 f1 eb ba a8 d4 0a bc c6 fe 72 3d
       -0.007947481 -0.0018000938 -0.008473553 0.059325002
000150 4d 59 43 3a 40 73 79 bd 92 28 be bc 78 09 fe 3c
       0.00074519665 -0.060900927 -0.023212705 0.031010374
000160 c3 8d d3 bc 9e 0c 6f 3d 30 cb 4c bc 44 b5 43 3d
       -0.025824433 0.058361642 -0.012499616 0.04778029
000170 98 93 35 bd fe 9a 62 bd e8 10 97 3c 18 52 54 3d
       -0.04433021 -0.055323593 0.018440679 0.051836103
000180 78 58 b5 bb a8 72 a8 bc 67 a0 19 bd 43 01 1e 3d
       -0.005534228 -0.020562485 -0.037506487 0.038575422
000190 72 53 ae bc 48 ee 18 3c bb 3f e1 3c c6 7a 7a 3d
       -0.021280024 0.009334154 0.02749621 0.061152242
0001a0 be a6 ac bc c4 3b 20 3d 00 ea ce 3a f1 c7 4c 3d
       -0.021075603 0.039119497 0.001578629 0.049995366
0001b0 63 b2 e9 3c 80 15 c5 3c c6 dd f8 bb f3 43 71 3d
       0.028527444 0.024058104 -0.007594797 0.058902692
0001c0 f0 b9 15 bc b0 26 4a 3c 4a 9f 7d bd e0 1f 89 3c
       -0.009138569 0.012338325 -0.061919488 0.016738832
0001d0 0d 57 f5 3c 00 2c bc 3b 46 8c a6 bc 62 b8 79 3d
       0.029948736 0.00574255 -0.02033056 0.060966857
0001e0 02 62 17 bd da 59 39 bd 10 3e a2 3c 51 28 29 bd
       -0.036958702 -0.045251705 0.019804984 -0.041298214
0001f0 03 54 78 bd e8 41 6f bc 2b 7f 7a bd 2a ed 2b bd
       -0.060626995 -0.014603116 -0.061156433 -0.041974224
000200 98 f2 7b 3c 6c 6c 4c bd d3 ca 64 3d 29 9f 14 3d
       0.015377663 -0.049908087 0.05585749 0.0362846
000210 e3 90 eb 3c 93 8a f8 bc 1a 4f 3f bd 4d f9 2f bd
       0.02875561 -0.030339515 -0.046706297 -0.04296236
000220 42 62 29 bd 84 32 9d 3c a4 e0 aa bc e2 e2 47 bd
       -0.04135347 0.019189127 -0.02085907 -0.048800357
000230 80 f9 05 3c 36 a1 62 bd 18 83 c7 3c 22 e4 5f 3b
       0.008177161 -0.055329524 0.024354503 0.0034163077
000240 b6 07 03 bd 13 c8 e2 bc 58 94 7d 3d f4 07 16 3d
       -0.031989776 -0.027683293 0.06190905 0.03662868
000250 ba b6 81 bd 46 fb 3b 3d 1a 04 38 bd 88 58 51 bd
       -0.063336805 0.04589393 -0.044925787 -0.05110982
000260 b9 55 0d bd b6 e6 52 3d 36 3b 1a bd e0 4f e7 bb
       -0.03450558 0.051489554 -0.037654124 -0.0070590824
000270 78 99 c2 bc d0 09 ae 3b c0 86 18 bc 13 7d d4 3c
       -0.02375482 0.0053112283 -0.009309471 0.025938546
000280 00 ed 4f 3d 4e 4f 2b bd 4e af ab bc d9 1d 81 3d
       0.05076313 -0.041823678 -0.020957615 0.06304521
000290 3e 16 f1 bb 1e 39 80 bc 33 35 80 bd 10 1a 9c bb
       -0.007357388 -0.015652236 -0.06260147 -0.004763849
0002a0 d0 e5 a1 3b 00 ca 9a 39 62 6e 1c bd 7c 40 1d 3d
       0.004940726 0.0002952367 -0.038191207 0.038391575
0002b0 a0 16 35 bd e3 5b 2e bd a0 4f 61 3c 00 68 6d bc
       -0.04421103 -0.0425681 0.013751894 -0.014490128
0002c0 c0 a1 e0 3c 8c b5 43 bd 43 75 f1 3c 17 78 20 bd
       0.027420878 -0.04778056 0.02947486 -0.039177027
0002d0 c3 a8 43 3d 68 87 13 bc d8 ab 38 bd 6d 2f 88 3c
       0.047768366 -0.009004451 -0.045085758 0.016624177
0002e0 73 b4 ee 3c 3f 24 14 bd 85 7a 1a bd a0 a6 e5 bb
       0.02913878 -0.03616738 -0.0377145 -0.0070083886
0002f0 78 cd c0 bc d4 3e 45 bd e3 f9 82 3d 65 cb 5f bd
       -0.023535475 -0.04815562 0.06395318 -0.05463733
000300 fe eb 5d bd 92 b1 c9 bc c2 06 9c bc 5c 45 28 3d
       -0.054180138 -0.024620805 -0.019046191 0.04108177
000310 03 6d f8 3c d0 7f 4c 3d 10 a9 23 bc be cb 33 3d
       0.030325418 0.04992658 -0.009989038 0.043895476
000320 5e 72 1e 3d a6 ac 71 bd 89 04 43 bd 34 b7 17 3d
       0.038683288 -0.05900254 -0.047611747 0.03703995
000330 38 65 60 3d 48 45 c4 bc 28 ec d6 3c 2b 33 6a 3d
       0.05478403 -0.023958817 0.026235655 0.057177704
000340 40 8c 6f 3d 00 cc 8d ba 54 11 48 bd 58 79 6f bd
       0.058483362 -0.0010818243 -0.04884465 -0.05846533
000350 f2 95 2c 3d b8 a6 26 3d a3 16 d4 bc 69 27 4c 3d
       0.042135186 0.04068634 -0.0258897 0.049842272
000360 38 a1 34 bd dd a6 4c bd 24 9a 8f 3c 32 ec 5d 3d
       -0.044099063 -0.04996382 0.017529555 0.05418033
000370 e4 1a 2c 3d 0f 77 be 39 70 ad a0 bb 78 75 9f bc
       0.042017832 0.0003632833 -0.004903488 -0.019465193
000380 c2 e2 b5 bc 88 a9 b1 bb 42 b2 47 bd 9a ac a0 bc
       -0.022202853 -0.005421821 -0.048753984 -0.019613553
000390 7c 22 2e 3d 83 05 6c bd 22 b4 37 3b 00 c7 ad b9
       0.042513356 -0.057622444 0.0028030952 -0.00033145398
0003a0 ea fb 54 bd 8b 72 4e 3d b0 39 fc 3b 5d a0 db bc
       -0.051998056 0.050402205 0.0076973066 -0.026809866
0003b0 2d 23 65 3d 73 94 fa 3c f0 b3 22 bc c6 d3 1e bd
       0.05594175 0.030588364 -0.009930596 -0.03877618
0003c0 44 d7 8f 3c 76 f6 61 3d 79 cf 24 3c 24 a6 05 3d
       0.017558701 0.055166684 0.010059231 0.032629147
0003d0 74 83 c5 3c 13 4e 81 3d 60 b6 e1 bb 98 8e ac 3c
       0.024110533 0.063137196 -0.006888196 0.021064088
0003e0 a3 ab 4d bd 26 36 2b 3d f8 41 72 bc 13 80 fa 3c
       -0.050212514 0.041799687 -0.014786236 0.030578649
0003f0 00 b9 c5 b9 dd b6 6b bd 22 41 bd bc 8f d2 3e bd
       -0.00037712604 -0.05754744 -0.023102347 -0.046587523

bias f4 [64]
000000 04 a9 9f 3c c0 86 40 3c 00 e5 65 bd 3f ab d1 bc
       0.019489773 0.011750877 -0.056126595 -0.025594352
000010 72 c1 45 bb 1c 5e af bc 42 e9 aa 3d 99 95 8d bd
       -0.0030175117 -0.02140718 0.08345272 -0.06913299
000020 12 c6 c5 bc cc 6c a4 3c a6 47 35 3d 54 1d 25 bc
       -0.024142299 0.02007141 0.044257782 -0.010077793
000030 dc ce ca 3c 64 48 87 bd 54 59 44 bc a8 2a 31 3d
       0.024756841 -0.06605604 -0.011984188 0.04325357
000040 6f f2 a7 bb 5c 4a 0a 3d 2d 6e 76 3d f2 68 cd 3c
       -0.005125336 0.03376232 0.060163666 0.025074456
000050 64 4d cb 3c 11 43 58 bd 5c 12 5c bc 04 80 0c bc
       0.024817176 -0.052798335 -0.013432112 -0.008575443
000060 78 98 6a 3c 00 21 dd bb 63 2e 2b 3d b0 1d 92 3b
       0.014318578 -0.0067483187 0.041792285 0.0044591054
000070 56 27 5e bd 75 95 ac 3d bb c5 aa bc e4 8e 3a 3d
       -0.054236732 0.08426944 -0.020846238 0.045546427
000080 ff e0 5e bd 21 5c 09 3d 3a 7e 97 3d 28 73 f9 bb
       -0.05441379 0.033535127 0.07397123 -0.0076126046
000090 3e 52 6a bc c6 27 56 bd f8 74 33 bd de 29 be bb
       -0.014301835 -0.052284025 -0.043812722 -0.005803331
0000a0 0d 17 51 3d 52 db 45 bd 0c c7 4a bd 97 58 f9 bc
       0.051047374 -0.048304863 -0.049506232 -0.03043775
0000b0 20 e2 99 3c fd 02 6d 3d 6a b1 e3 bc 8e 8f 5f bd
       0.018784583 0.057864178 -0.027794559 -0.054580264
0000c0 e3 42 01 bd d0 41 96 bc 88 f0 9b 3c 35 2d b7 3c
       -0.03155793 -0.018341929 0.019035593 0.022360424
0000d0 7f 30 81 3d 65 8f cb 3c 60 1f 51 3c 32 ea 39 3d
       0.06308078 0.02484865 0.012763828 0.04538936
0000e0 ee ca 60 bd 8c 1a 4c 3d b3 ce 54 3d 2a 26 a4 bc
       -0.05488103 0.049830005 0.051954936 -0.02003773
0000f0 8f af 26 3d e7 d3 3b bd e0 85 f2 bc 56 24 0d bd
       0.04069477 -0.045856383 -0.029604852 -0.03445848

weight f4 [64, 64]
000000 7c b0 24 3d 4c fd 18 3d ae e0 e4 bd 25 b3 36 3d
       0.04020737 0.037350938 -0.11175667 0.04460444
000010 f3 f9 5f 3c 5a 5e d0 bd 68 30 de 3b 23 6c 08 bd
       0.013670432 -0.10174246 0.006780673 -0.033306252
000020 f2 9f e3 bd 44 9f 4a 3d 00 5b 99 3b 91 76 36 3d
       -0.111144915 0.049468294 0.0046800375 0.044546667
000030 39 3d 9f 3d 46 20 01 bd 40 d1 b8 bb f0 e6 7c bb
       0.07775349 -0.03152492 -0.005640179 -0.0038589798
000040 45 2d fa bd 26 b3 d4 3d 26 f3 b8 bd 12 7f 9b bc
       -0.12215666 0.10385732 -0.09030752 -0.01898149
000050 bf f0 05 bd 3e 3c e4 3d be 10 43 bd 28 c5 51 3d
       -0.032700296 0.11144303 -0.04762339 0.051213413
000060 83 b3 9d bd 40 ee c9 3b b5 67 98 3d 1e 6e a1 bc
       -0.07700255 0.006162435 0.074416555 -0.019705828
000070 98 66 84 3c 96 a8 80 bb 18 79 c0 bb c4 7d 8b 3d
       0.016162202 -0.003926347 -0.0058738105 0.06811097
000080 20 8f d4 bb aa 1e b5 3d 06 bf c4 bd a0 82 dd bc
       -0.0064867884 0.08843739 -0.09606747 -0.027039826
000090 8b c0 53 bd 90 47 da bd b8 36 99 3c a7 85 81 bd
       -0.051697295 -0.10658181 0.01870285 -0.0632432
0000a0 e0 f3 b7 3c 4a 50 df bd 72 b0 ab 3d ce 64 98 bc
       0.022455156 -0.10903986 0.08383264 -0.018602755
0000b0 93 66 eb 3d e0 a9 d3 bc 1d f3 e6 3d 18 85 1b bd
       0.11494174 -0.025837839 0.11276839 -0.037968725
0000c0 a4 f3 83 bd 6c 63 b8 3d d0 26 82 3c 88 d4 f9 3b
       -0.06442955 0.09003338 0.015887648 0.0076242127
0000d0 84 ee 8d bd cd 24 88 3d 40 c6 07 3c ba da c3 3d
       -0.06930259 0.06647644 0.008287013 0.09563203
0000e0 3a 8e f9 3d 18 00 9e bd eb 77 9a 3d 78 21 aa 3c
       0.12185331 -0.07714862 0.07542404 0.020767912
0000f0 c5 2c 9f bd 0d 4f e8 3d 9c bb c6 3d fe 6e 99 bd
       -0.07772211 0.11343203 0.097037524 -0.07491873
000100 00 da ce 3d e4 3a 10 bd 20 a5 a1 3d 68 3e 18 bd
       0.10100174 -0.035212412 0.07892823 -0.03716889
000110 74 59 02 3d a0 07 ab bc 34 2f 3a bd d0 60 d7 3c
       0.03182359 -0.02087766 -0.045455173 0.026291281
000120 98 92 17 bd 3e 26 a9 bd 10 9a c9 3d 63 83 fc bd
       -0.037005037 -0.08259247 0.09843838 -0.123297475
000130 a2 02 8c 3d 40 e9 d7 bc d0 df c4 3c cd f8 df 3d
       0.0683644 -0.02635634 0.024032503 0.10936127
000140 7c 2d c3 3d 92 2d e6 bd 18 10 a6 bd b0 07 01 bc
       0.0953016 -0.112391606 -0.081085384 -0.007875368
000150 0a 50 bd 3d 08 7d 8c bc 50 e2 9b 3c 50 07 7f bc
       0.09243782 -0.017149463 0.019028813 -0.015565708
000160 68 73 f7 bd b8 3b e2 bd b0 67 21 3c 8d 6c 66 3d
       -0.12082559 -0.11046547 0.009851381 0.056255866
000170 ac 08 bf bd c8 4c e7 bd 10 17 89 3d 20 66 dd bd
       -0.09327826 -0.11293942 0.06693852 -0.108104944
000180 be b4 a2 bd 86 33 fe bd a0 68 c7 bc 18 33 e6 3d
       -0.0794463 -0.12412171 -0.024341881 0.11240214
000190 98 77 cd 3c 88 f5 d4 bd 78 cf 17 3d 4e 3e f9 3d
       0.02508144 -0.10398394 0.037063092 0.12170087
0001a0 18 9a bf bc a2 d5 c4 3d 08 8c 27 3d 90 e6 12 bd
       -0.023388907 0.0961106 0.04090503 -0.035864413
0001b0 dd 5e f5 bd 92 c7 cc 3d ba 03 f5 bd d8 4a 7a bd
       -0.11980984 0.099990025 -0.119636014 -0.061106533
0001c0 e4 a9 4c 3d 62 27 f4 bd 3a 17 a0 3d a0 b2 e8 bd
       0.049966708 -0.11921574 0.0781693 -0.11362195
0001d0 02 08 d8 bd 90 4b 4b bc 13 41 62 3d fe b9 93 3d
       -0.10548402 -0.012408152 0.05523784 0.072132096
0001e0 08 ee d3 bd f8 59 65 3d b0 30 a5 3d 24 2f 40 3d
       -0.10348135 0.055994004 0.08065927 0.046919957
0001f0 80 03 e8 ba 08 d2 07 3d 60 e3 e0 bd 28 c5 d6 bc
       -0.0017701238 0.033159286 -0.10980868 -0.026217058
000200 b3 51 cf bd cc 17 b0 3d 70 ac b3 3d 61 0b d7 3d
       -0.10123005 0.08598289 0.08773124 0.10500217
000210 5a 2b d1 3c c6 fb cb 3b d9 50 fc bd de 9f ad bc
       0.025533367 0.006225082 -0.12320108 -0.021194395
000220 a6 b6 90 bd 10 26 de bc 24 b8 3b 3d 9f 92 49 3d
       -0.070660874 -0.027117759 0.045829907 0.049212094
000230 92 14 73 bc 3e 73 0c 3d d2 5d f4 3d 39 93 83 bd
       -0.014836447 0.03428959 0.11931957 -0.06424565
000240 0c 67 e5 38 2e 41 0d 3c 59 80 01 3e 41 c4 15 bd
       0.00010938765 0.008621497 0.12646617 -0.036564115
000250 45 07 ee 3d ba e5 18 3d 09 35 b1 3d 28 8b 31 3d
       0.1162248 0.03732846 0.08652694 0.0433456
000260 f0 26 fc bd 3c 14 06 3d 5c a9 0d 3b 04 cb c1 bd
       -0.12312114 0.03273414 0.0021615839 -0.0946255
000270 ce 27 8e bd 5a 73 d1 bd 13 c4 22 bb 1c 26 b7 bd
       -0.06941186 -0.1022708 -0.0024836108 -0.08942816
000280 0b ca 80 bd 04 8e 85 bc 4b 52 81 3d 78 63 1e 3d
       -0.06288537 -0.01630307 0.06314524 0.03866908
000290 14 0c 1a bd 1c e8 2f bd bd fb 52 3c 49 86 75 3c
       -0.037609175 -0.042945966 0.012877402 0.014985629
0002a0 54 d4 2c 3d 1a 44 fe bd a8 f8 f6 bc 53 c0 a9 bb
       0.04219468 -0.12415333 -0.030147865 -0.0051803975
0002b0 04 69 b2 bd 44 cd 44 3d 2a e6 8f 3d 90 4c ce 3c
       -0.087114364 0.04804732 0.07026322 0.025182992
0002c0 cc dd 93 3d e8 8b 60 3d de 5b 99 3d 3f 4f 8c 3c
       0.07220039 0.054820925 0.074882254 0.017127631
0002d0 6e 85 cf 3d 97 cd fa bd 40 90 2c bc 96 a4 13 3d
       0.101328716 -0.122462444 -0.010532439 0.036045633
0002e0 d7 8d e1 bc 56 34 e4 3d d6 aa aa bd 0e fa ed bd
       -0.027533455 0.11142795 -0.083333656 -0.1161996
0002f0 75 0e 5a 3d a3 a9 c5 bd 44 d5 1d bd 98 71 13 3d
       0.053236444 -0.09651496 -0.038533464 0.035997003
000300 85 43 4f bd 84 a2 b1 3d 22 bf 90 3d 48 ec 19 3e
       -0.0506015 0.086735755 0.07067706 0.1503154
000310 15 ec e1 3d 8c 6c 92 bc 81 be 86 bc 15 b5 4f bd
       0.11031357 -0.017874025 -0.016448261 -0.050709803
000320 f0 2b b7 bc 02 84 aa 3d 54 e7 3c bd 41 a4 45 bd
       -0.022359818 0.0832596 -0.04611905 -0.048252348
000330 b6 53 08 3e f9 dc f0 3c 78 e8 3d 3d 2e 2a 30 3c
       0.13313183 0.029402243 0.046364278 0.010752244
000340 63 03 b7 3d 3e f5 8e bd fe 24 b4 3c a0 2f 76 bc
       0.08936193 -0.0698037 0.021990295 -0.015026003
000350 99 5e 1c 3e cf b2 f1 bd 11 48 c3 3d 33 15 fa 3d
       0.15270461 -0.11801683 0.0953523 0.12211075
000360 37 65 a1 3d cc 56 46 3d d2 26 e7 3d 4f 44 9e 3d
       0.07880633 0.04842262 0.11286701 0.077278726
000370 28 02 55 3d d4 62 4a bd 25 3b 80 bc a0 18 a7 3d
       0.05200401 -0.049410656 -0.015653202 0.08158994
000380 ba f6 8c 3d d0 b6 47 bc 0b e9 92 3d 1c 69 35 3d
       0.06882997 -0.012189582 0.07173356 0.044289693
000390 32 78 ad 3d 08 25 e3 bd 1e 0c b4 3b 3c cc 2c bc
       0.08470191 -0.110910475 0.0054946085 -0.01054674
0003a0 58 40 9b 3c 38 42 78 3d e2 28 94 3d 18 d2 10 3d
       0.01895158 0.060610026 0.0723436 0.03535661
0003b0 f3 27 7a bd e0 3e e3 3b 3c aa 82 bd e2 d9 fb 3d
       -0.061073255 0.0069349855 -0.06380126 0.12297417
0003c0 9c 3e 41 3d d0 19 c1 bd 8e 51 d2 3d f2 df 6c bd
       0.04717885 -0.094287515 0.102694616 -0.05783076
0003d0 ec 3a 4b 3d 3f cc 6f bd b0 a8 c4 3d 11 ff 35 3d
       0.04961674 -0.058544394 0.09602487 0.044432703
0003e0 f6 6d de bd 96 17 a8 3d 48 c8 e2 3d ac a9 cc 3d
       -0.10860817 0.08207624 0.11073357 0.099933
0003f0 6e 18 00 3e 7b d6 31 3d 40 95 9a bb 40 99 d8 3b
       0.12509319 0.043417435 -0.004717499 0.0066100657

bias f4 [64]
000000 ce 86 d3 bd b0 29 29 bd 33 d5 7e 3d 2e 0b ad 3d
       -0.10328446 -0.041299522 0.06221504 0.08449398
000010 f0 fb 05 3c ea 1d da 3d 27 f3 91 3d 90 8c 2f 3d
       0.008177742 0.10650237 0.07126456 0.04285866
000020 19 ed 21 bc f7 56 f5 bd 6f 6e a0 3d 7b 2d 5b 3d
       -0.009883189 -0.11979478 0.078335635 0.05351017
000030 57 1d 73 3d c1 ba 86 3d a4 b6 4b 3d 7c 5e 7c 39
       0.059354153 0.06578589 0.049734727 0.00024067791
000040 38 a4 1e bd d0 43 ec 3d 5e 08 80 bd b2 f3 89 bd
       -0.03873083 0.11536372 -0.06251596 -0.06735934
000050 7a 40 c8 bd 2b a9 69 3c 1f 81 a4 bd 52 e4 aa bc
       -0.09777923 0.014261524 -0.080324404 -0.020860825
000060 eb 4a 90 3b 74 3c ae 3d 73 db 0c bd 05 bf cd 3c
       0.004403462 0.08507624 -0.03438897 0.0251155
000070 be 33 be bd 72 42 d7 3d 27 33 b3 bd c0 6b 5d 3c
       -0.09287213 0.1051072 -0.08749991 0.013514459
000080 80 69 8a bb 00 91 18 bc 94 07 2b 39 74 3c 31 bd
       -0.0042240024 -0.009311914 0.00016310654 -0.043270543
000090 e6 1f 33 3d 13 e6 ba 3d 68 9d 5e bd 48 c8 f7 bc
       0.043731593 0.091259144 -0.054349333 -0.030246869
0000a0 d3 af 06 3e b2 7c e0 3d 81 d5 30 3d d0 64 fb bd
       0.13153009 0.10961284 0.043172363 -0.12275088
0000b0 2e bf a6 bd 83 db ef bd 71 80 3b 3d 96 63 ad 3c
       -0.081419334 -0.117117904 0.04577679 0.02116565
0000c0 ea 02 91 3d 4e b5 9a bd 32 d8 fb bd 90 12 0f 3b
       0.07080634 -0.075541124 -0.12297095 0.0021831132
0000d0 5c 62 35 bd d8 0b ce 3c 07 3b ec bd 18 6c c1 bd
       -0.044283256 0.025152132 -0.11534696 -0.09444445
0000e0 52 7f bd 3d 3d 7f 07 3e a9 f8 ba 3d 8a 9b 47 3c
       0.092528 0.13232131 0.091294594 0.0121830795
0000f0 57 f6 b4 bc 3c 81 ab 3d db 31 10 3e ef 4d 4f 3d
       -0.02209012 0.08374259 0.14081518 0.050611433

weight f4 [4, 64]
000000 22 7e 5b bd a2 0c ab 3d 22 65 9b 3d ec ed 29 bd
       -0.053587086 0.08352019 0.07587649 -0.041486666
000010 ae 11 d2 3d cc b5 d5 3d 48 19 e8 bd 60 01 4e 3d
       0.102572784 0.104350656 -0.11332947 0.05029428
000020 fd 9e 04 3d 8e 25 de 3d ee 15 ee 3b 7a 9c e0 3d
       0.032378186 0.10847007 0.007265798 0.109673455
000030 c0 33 8b 3d 80 3b bf bd f8 62 bf bd 96 15 a3 bd
       0.0679698 -0.093375206 -0.09345049 -0.079631016
000040 47 1d ae 3c 4c 9c 5e 3d 8a fb e2 3d c0 55 ef bb
       0.021254195 0.054348275 0.110831335 -0.0073039234
000050 c1 6a 0c bd fa 23 d1 bd 99 8d e2 bd 9b e2 13 be
       -0.034281496 -0.1021194 -0.11062164 -0.14441912
000060 9e e9 f6 3c 70 fa 63 3d be 64 a9 3c 45 df 8d 3d
       0.030140694 0.055658758 0.02067792 0.06927351
000070 0d 3e d9 3d 57 a9 b5 bc a5 5c 01 3c c4 51 b9 3d
       0.10607538 -0.022175474 0.007895623 0.09048799
000080 5a df c6 3d 58 7b b4 bd f5 df 15 be 2b b1 c7 bc
       0.0971057 -0.088125885 -0.14636214 -0.024376472
000090 66 89 2c be 8c 1d 88 bc ba b8 92 3d e0 28 33 3c
       -0.16849288 -0.016615652 0.0716414 0.010935038
0000a0 be c5 c5 39 4b 0e f4 bc 64 86 da bd 8e ad f1 bd
       0.00037722097 -0.029791972 -0.10670164 -0.11800681
0000b0 9e be c7 bd e8 30 46 bd 88 c4 e0 bd a9 db ae 3d
       -0.09753154 -0.048386484 -0.10974985 0.085379906
0000c0 4b 21 d0 3d 6d 3d 0c be b0 70 f8 bd 9e e5 1d bd
       0.101626 -0.13695307 -0.121308684 -0.03854906
0000d0 f8 7a 1e 3d 30 6f 18 3c c1 26 f1 bd a4 90 3e bd
       0.03869149 0.009303853 -0.1177497 -0.04652466
0000e0 7e 9f dd bd 45 2b 2a bd f2 e2 f1 3d 5c 30 bf 3d
       -0.10821436 -0.04154517 0.118108645 0.09335396
0000f0 68 0a f6 bd c7 bc 14 3d 98 25 80 bd b8 e0 89 3c
       -0.120137036 0.036312845 -0.062571704 0.016830787
000100 02 6c a7 3d 8e b4 c4 3d 7a 51 11 3d 3f e1 f2 3d
       0.08174898 0.096047506 0.035478093 0.118593685
000110 04 5a 92 3d 63 8e c8 3d b5 61 dd 3c 98 38 58 bd
       0.07146075 0.09792783 0.02702413 -0.052788347
000120 79 ff 2b 3d 0e 9e 85 bd fc b4 02 3e d4 23 c3 bd
       0.041991685 -0.06524287 0.12764353 -0.09528318
000130 32 ce 63 bd 92 74 eb 3d 31 ef c7 3d 8c fa d0 3d
       -0.055616565 0.114968434 0.09762419 0.10204038
000140 a1 c5 02 be 13 68 06 3e 00 30 b0 3b 8a 7c 8d bd
       -0.12770702 0.13125639 0.005376816 -0.069085196
000150 42 11 05 3e f0 5d 4c 3d d4 72 4d 3d 6c 2b 1d bd
       0.12994865 0.049894273 0.050158337 -0.03837149
000160 0e bc 1a 3b 05 df 74 3d e4 df bf 3d 0c 7d 86 bd
       0.0023610624 0.059783 0.093688756 -0.065668195
000170 9d 84 e6 3d fc d9 06 3e 9d ac 12 3e 03 0f ff bd
       0.11255763 0.13169092 0.14323659 -0.12454035
000180 2e 18 e1 3d 40 80 07 bb e5 61 f9 3d 81 d9 68 bb
       0.1099094 -0.0020675808 0.12176875 -0.0035530033
000190 0a fb 1d 3d d2 ec 6b bd 48 fc 92 bd 78 bd 29 3d
       0.038569488 -0.057598896 -0.07177025 0.041440457
0001a0 64 6d c1 3d e1 4f a5 bd 9e 01 c3 3d 06 40 a7 bd
       0.09444693 -0.08071876 0.09521793 -0.081665084
0001b0 7c a4 b0 3d 48 7a da bd d6 9f 2c bd 02 81 8e bd
       0.08625123 -0.106678545 -0.04214462 -0.069582
0001c0 51 3c 45 3d e9 60 cc 3d ce 47 9d bd 9c 77 b5 3d
       0.048153225 0.09979422 -0.07679711 0.08860704
0001d0 20 42 6f 3d 78 81 ae 3d e1 4a 6a 3d cd cb e6 3d
       0.05841267 0.08520788 0.057200316 0.11269341
0001e0 8e ff 80 3d dc 80 46 3d 43 6b 71 bd 69 4e 98 bd
       0.06298743 0.048462734 -0.058940183 -0.074368306
0001f0 dd e5 07 3e eb 3f e5 bd d1 b6 0b 3e 5e 54 97 3d
       0.1327128 -0.11193832 0.13643958 0.07389139
000200 6b 7f f3 3c 3d 55 51 3d 8f 30 0c 3c c5 7d d9 bd
       0.029723844 0.05110668 0.008556499 -0.10619692
000210 c0 82 fc 3d 70 7a 52 bd b0 9a 05 3d 34 f3 a6 3d
       0.12329626 -0.051386297 0.032618225 0.08151856
000220 65 8f 99 3d 21 11 a3 3d 80 fb a6 3c 39 12 ce bd
       0.074980535 0.079622515 0.020383596 -0.100620694
000230 4a 9d 48 bc ea 43 a1 3c 0d e8 19 3d 40 03 33 bd
       -0.012244532 0.019685704 0.037574816 -0.04370427
000240 56 22 f9 3d b1 f9 12 bd 00 94 3b 3d ad 29 55 3d
       0.12164752 -0.035882656 0.04579544 0.0520417
000250 e1 fa 19 bd f5 0a 0e bd 73 42 37 3b 9f e6 6a bd
       -0.037592772 -0.03467842 0.002796319 -0.057348844
000260 11 06 cd 3d 0f f4 71 bc f9 59 dd 3a 1e fb c9 bd
       0.10010923 -0.014767661 0.0016887776 -0.0986235
000270 50 9b 43 3c dd de b0 3d 94 76 e6 3d 18 b6 d0 bc
       0.011938885 0.08636258 0.11253086 -0.025477454
000280 f3 2f d1 bd 50 8e 1f bc 7d 7a 2c 3d ac 20 9b 3d
       -0.10214224 -0.00973852 0.042109 0.07574591
000290 96 04 63 bd 05 dc ef bd ad 34 5d 3d e2 53 ee 3d
       -0.055424295 -0.11711887 0.054005314 0.11637093
0002a0 c9 7a 92 3d a0 5b 29 3c 16 e3 83 bb a6 d1 b3 3d
       0.07152326 0.0103367865 -0.0040248735 0.08780222
0002b0 88 17 dd bd 30 4c 0d 3c eb 12 10 bc e8 b4 2c 3d
       -0.10795504 0.008624122 -0.008793573 0.042164713
0002c0 0c 8f 99 3d 87 6d 8c 3d 8e 93 a8 3d c8 9f 16 bd
       0.07497987 0.06856828 0.08231269 -0.036773473
0002d0 63 97 4d bd f4 84 23 bd a4 e9 d1 3d d8 91 ea 3d
       -0.0501932 -0.039921716 0.102496415 0.11453599
0002e0 fc 0e 04 be 90 14 b0 bd 27 44 0f bc 34 a4 87 bd
       -0.12896341 -0.08597672 -0.008744276 -0.06623116
0002f0 69 07 64 bd 62 8d 1c 3c 60 f6 98 3d af d0 e3 bd
       -0.05567113 0.009555193 0.07468867 -0.111237876
000300 1a 59 7e 3c c0 79 41 bd 2b 42 df 3c 95 c1 ee 3d
       0.015524173 -0.04723525 0.027253231 0.116580166
000310 8d 8b ee bc d3 55 16 bc cc f0 d7 bd 0d fe e8 bd
       -0.029119277 -0.0091757355 -0.10543975 -0.11376581
000320 e7 cc 3a 3d 0a 10 45 bc d3 e6 04 bd c7 1f aa 3d
       0.045605566 -0.01202775 -0.032446694 0.08306842
000330 6d 80 b1 3d b0 21 a4 bd 68 ce ed bc 6d eb ad bd
       0.086670734 -0.08014238 -0.029029086 -0.084921695
000340 a6 9e d0 bd 8c 1b 3b bd a3 77 4d bd f8 88 85 bc
       -0.1018651 -0.045680568 -0.050162923 -0.016300663
000350 03 e2 9e bd ea 1d 50 3d 08 38 ef bc 8b b7 38 3d
       -0.07757952 0.05080978 -0.029201522 0.045096915
000360 e0 c8 c4 bd 7d cb 49 bd e0 af 02 3d 16 8a fe 3d
       -0.09608626 -0.049266327 0.03190601 0.124286816
000370 5d 63 61 bd ea a1 27 bd 07 d5 f2 3d 46 a5 cf bd
       -0.0550264 -0.040925898 0.11857038 -0.10138945
000380 80 c1 47 3c c8 e9 b2 bc 9d fb 90 bd d3 c3 94 bc
       0.01219213 -0.021839991 -0.070792414 -0.018159783
000390 ac d0 95 3d 34 a4 a7 3d ec c4 30 3d a8 d9 df 3c
       0.073151916 0.08185616 0.04315655 0.027325466
0003a0 4d 8d c0 bd 6b 11 d3 3d de 81 d2 3d 9c c9 97 3d
       -0.09401951 0.103060566 0.102786765 0.07411501
0003b0 90 48 89 3d 40 c6 da bd 83 f6 f9 3c ac 6f ab 3d
       0.06703293 -0.106823444 0.030513054 0.08370909
0003c0 ed e4 89 3d 1c c4 7c 3c ae 9e 88 bd 3f af aa bd
       0.06733117 0.0154276155 -0.06670891 -0.08334207
0003d0 40 a9 b5 3b e6 7c af bd ad a4 c0 bd 20 72 43 bd
       0.005543858 -0.08568744 -0.094064094 -0.04771626
0003e0 33 7a e0 3c 77 94 6b 3c 3f 59 c3 3c bc e5 bc bd
       0.02740202 0.0143786585 0.023846267 -0.09223506
0003f0 c6 eb af 3d 3c f0 01 bd 15 a0 4a 3d 2d 32 b3 bd
       0.08589892 -0.031723246 0.049469072 -0.08749805

bias f4 [4]
000000 81 e5 7c 3c 9d da 7b 3d e7 68 a6 3b 25 79 b3 bd
       0.015435577 0.061487783 0.0050784233 -0.08763341

weight f4 [1, 64]
000000 22 21 bc bc 28 8c 7c bd ec 4b 8c bd 1e ef 9f bd
       -0.022965018 -0.0616571 -0.068504184 -0.0780928
000010 1b 72 b3 bc a7 e2 a7 3d 02 1e eb 3d 3e 56 df bd
       -0.021904996 0.081975274 0.11480333 -0.10905121
000020 eb 4f 2a 3c 9e c7 9a bd b3 43 0d 3d 4d b0 d7 b9
       0.0103950305 -0.07557605 0.03448839 -0.0004113935
000030 06 9f ad 3d 14 9e 94 3d 87 a6 55 bd 32 55 47 3d
       0.08477597 0.072567135 -0.052160766 0.048665233
000040 7d 30 bd 3d 0b 09 9c bc 20 52 71 bd 1a 7f e4 3d
       0.09237764 -0.01904728 -0.05891621 0.11157055
000050 da d1 eb bc e3 6b 16 bd 12 36 e4 3d 36 f1 c1 3d
       -0.028786588 -0.036723983 0.111431256 0.094698355
000060 00 e0 a4 3d 68 43 94 bd 28 14 1d 3d b6 55 8d 3d
       0.08050537 -0.07239419 0.0383493 0.06901114
000070 64 53 0b bd 97 00 f4 3d 60 34 0f 3d 23 23 62 bd
       -0.034015074 0.11914175 0.034962058 -0.05520929
000080 6c 51 9e 3d 72 bc 80 bd 36 89 cd 3d b7 8b 97 3d
       0.07730374 -0.06285943 0.100359365 0.07399695
000090 6e e8 41 bc f1 8f 14 3c b0 46 60 bd da 84 ab bd
       -0.011835201 0.009067521 -0.054754913 -0.08374949
0000a0 55 a3 6c 3d 0a eb 00 be 72 2b ac 3b e2 8c 9f 3d
       0.057772953 -0.1258966 0.0052542025 0.07790543
0000b0 46 70 e5 3d e8 51 67 bd c3 15 05 bd 94 b4 00 3d
       0.11203055 -0.056474596 -0.032491457 0.031422213
0000c0 e3 40 53 3c 40 7f 91 bd 70 05 64 3d 77 0a e0 bd
       0.012893888 -0.07104349 0.055669248 -0.10939496
0000d0 4a 16 b5 bd d4 9b c3 bd 00 19 59 bd 80 43 db 3a
       -0.08842142 -0.09551206 -0.053002357 0.0016728491
0000e0 d9 14 05 3c a5 f6 d0 bd 2a 42 c5 bd 89 fd a9 bc
       0.008122646 -0.10203294 -0.096317604 -0.020750778
0000f0 05 62 32 3d 5a b8 49 bc 1a de fb 3c ea 5c a1 bb
       0.04355051 -0.012312019 0.030745555 -0.0049244063
