models/main_agent_model.pt (torch, 84111 bytes, 7 tensors)

weight f4 [64, 243]
-0.034735776 -0.038017225 0.012099048 -0.0063871667 0.02075351 0.016766516 0.04978206 -0.03248496
0.03498715 0.021838732 0.041807286 0.009128342 0.052728444 0.042293474 -0.042744372 0.009055302
0.055449277 0.051304135 0.0020622835 0.057013817 -0.047054384 0.057887703 0.060838588 0.020138284
-0.03284833 0.02699937 -0.002083443 -0.051937956 -0.048399623 0.027748406 0.062469516 -0.0356201
-0.028081987 0.06714559 0.030816987 -0.012501374 -0.017001446 -0.0030573197 0.036781356 0.060008157
0.0064795837 0.038743574 0.007666691 0.038734958 0.05264911 -0.024043487 -0.037958365 -0.021275971
0.037617736 -0.005197048 0.049131818 -0.033416484 -0.0004150048 -0.037450098 0.024405688 0.051822077
0.059288245 0.03730781 -0.025074184 0.040187955 -0.04577379 -0.037051924 0.028763711 -0.03483719
-0.004226804 -0.010845255 -0.06002143 -0.023138449 0.054766785 -0.028560922 0.01774177 -0.00061172247
0.110578746 -0.06152106 -0.047525723 0.08643138 -0.00055078417 -0.026938552 0.02974984 -0.019799978
-0.03807448 0.03975773 0.05719611 0.06754445 0.01678908 -0.024234772 0.046377063 -0.055585615
0.06380377 -0.005646676 0.02479059 -0.0034549348 -0.027874207 0.04675414 0.021970175 -0.045957014
0.08330376 0.04207097 -0.026817441 0.0946271 -0.036943875 -0.04836608 -0.021404695 0.059265345
0.0072551295 -0.018846568 -0.023195852 0.0027141608 -0.053136475 -0.048767693 0.011763746 0.055011768
-0.061085094 0.04747305 -0.051679716 0.034263663 -0.053435463 0.05346321 0.031538144 0.017267995
0.036303356 -0.0069772936 -0.040978506 -0.040458504 0.043448046 0.023052735 0.117123075 -0.008301061
0.054254882 0.06068517 -0.044893786 0.07606271 -0.0421066 0.026386267 0.038786504 -0.04478089
0.04417438 0.022343718 -0.07289035 -0.049347945 0.026104704 0.040299423 -0.054713577 -0.020618584
0.06155332 -0.050371848 0.0059292265 0.009013429 0.020698838 0.06034514 0.047356725 0.06302829
-0.021045588 0.111116305 -0.057255417 0.048706643 -0.0014763218 0.013628319 -0.018869173 0.0355042
-0.031240832 -0.014814284 -0.06332686 0.026896352 0.026853003 0.008079278 0.04599411 -0.04061033
-0.065950416 0.019804858 0.026676053 -0.04627157 0.035821147 0.0062882975 -0.014725089 0.049096145
-0.028270185 0.05269047 0.056705706 -0.031046983 0.06095192 0.062945776 -0.045259446 0.022857996
0.049481228 -0.004962243 0.05676899 0.02350998 0.038586665 0.04942677 0.014537506 0.06149229
0.010761272 -0.0062959976 0.0073440894 -0.0805267 -0.021852016 -0.046300262 -0.10202513 0.028894916
-0.0139491735 -0.031517513 -0.0153246345 -0.047988605 -0.059880555 0.04794266 0.051848404 -0.06899417
-0.024274841 0.0045102164 -0.022608602 0.030147875 0.029987955 -0.0071385987 -0.014916378 -0.0074500483
0.018526249 0.013890445 -0.0412405 -0.037759483 -0.036035948 -0.039996594 -0.02579106 -0.06350992
0.025452733 -0.036038034 0.007740639 0.04878563 0.054011755 -0.015891958 0.035982657 -0.052904926
-0.04194856 -0.045998964 0.019196264 -0.053456217 0.033572346 0.012037918 0.015791744 0.01603744
-0.034546614 -0.039321452 0.064219035 -0.05280263 -0.0033467636 -0.010973596 -0.036933996 0.009773716
-0.060953747 0.025163785 0.03622727 0.0010410575 0.032354444 0.04612793 -0.03295598 -0.00054685026
00000000: 1a47 0ebd f3b7 1bbd 163b 463c 704b d1bb
00000010: 4403 aa3c ef59 893c 46e8 4b3d f30e 05bd
00000020: b04e 0f3d 24e7 b23c 1e3e 2b3d 0b8f 153c
00000030: c8f9 573d ec3b 2d3d b914 2fbd b05c 143c
00000040: c81e 633d 4924 523d 6027 073b 5287 693d
00000050: 19bc 40bd a81b 6d3d e231 793d 0bf9 a43c
00000060: f88b 06bd c82d dd3c 608a 08bb e5bc 54bd
00000070: af3e 46bd a050 e33c 09e0 7f3d 62e6 11bd
00000080: 320c e6bc a183 893d e873 fc3c 90d2 4cbc
00000090: 9e46 8bbc 505d 48bb 0ca8 163d 1dcb 753d
000000a0: b052 d43b 95b1 1e3d de38 fb3b 8ca8 1e3d
000000b0: 98a6 573d d9f6 c4bc 3b7a 1bbd f24a aebc
000000c0: 0e15 1a3d 004c aabb 723e 493d b9df 08bd
000000d0: 0095 d9b9 4665 19bd 70ee c73c 6343 543d
000000e0: 3bd8 723d 13d0 183d 6068 cdbc 209c 243d
000000f0: 4c7d 3bbd c2c3 17bd e0a1 eb3c 71b1 0ebd
00000100: 0081 8abb 4cb0 31bc 08d9 75bd d88c bdbc
00000110: 2353 603d 98f8 e9bc 3057 913c 005c 20ba
00000120: 1c77 e23d 82fd 7bbd 55aa 42bd ef02 b13d
00000130: 8062 10ba 3dae dcbc f0b5 f33c 9033 a2bc
00000140: fcf3 1bbd 00d9 223d 7846 6a3d bf54 8a3d
00000150: 4189 893c 0088 c6bc e0f5 3d3d bead 63bd
00000160: 8dab 823d c007 b9bb a315 cb3c 306c 62bb
00000170: 7358 e4bc 4581 3f3d ccfa b33c 6c3d 3cbd
00000180: 299b aa3d 9c52 2c3d 40b0 dbbc dacb c13d
00000190: 7652 17bd 831b 46bd e658 afbc 38c0 723d
000001a0: 70bc ed3b 1e64 9abc 3a05 bebc 10e0 313b
000001b0: a2a5 59bd a2c0 47bd babc 403c 0554 613d
000001c0: 5d34 7abd 1a73 423d 1cae 53bd 0e58 0c3d
000001d0: 25df 5abd 3dfc 5a3d 242e 013d 9c75 8d3c
000001e0: d4b2 143d c8a1 e4bb 14d9 27bd d1b7 25bd
000001f0: 94f6 313d 17d9 bc3c 39de ef3d 2c01 08bc
00000200: 5e3a 5e3d 0391 783d 8ce2 37bd c4c6 9b3d
00000210: f877 2cbd 0328 d83c 99de 1e3d 2b6c 37bd
00000220: 32f0 343d 2c0a b73c 8947 95bd 1221 4abd
00000230: 88d9 d53c 0211 253d 581b 60bd 4ee8 a8bc
00000240: 561f 7c3d b652 4ebd f549 c23b 10ad 133c
00000250: 9c90 a93c 772c 773d 20f9 413d fa14 813d
00000260: cc67 acbc f290 e33d a884 6abd 9e80 473d
00000270: 2481 c1ba 5049 5f3c 8693 9abc da6c 113d
00000280: c6ec ffbc 9cb7 72bc 83b1 81bd bd55 dc3c
00000290: d4fa db3c f35e 043c 5264 3c3d 0457 26bd
000002a0: 0311 87bd cc3d a23c bd87 da3c 4287 3dbd
000002b0: 32b9 123d 100e ce3b 8041 71bc 0a19 493d
000002c0: e096 e7bc f6d1 573d 3e44 683d 3e56 febc
000002d0: b8a8 793d b7e9 803d f861 39bd b140 bb3c
000002e0: d4ac 4a3d 509a a2bb 9a86 683d 0098 c03c
000002f0: 0d0d 1e3d ba73 4a3d b82e 6e3c 57df 7b3d
00000300: 0c50 303c a84e cebb b0a6 f03b 2feb a4bd
00000310: 0003 b3bc 58a5 3dbd 8df2 d0bd 08b5 ec3c
00000320: 138b 64bc 8218 01bd 2d14 7bbc b38f 44bd
00000330: 5045 75bd 865f 443d fe5e 543d d14c 8dbd
00000340: 08dc c6bc 70ca 933b ad35 b9bc adf8 f63c
00000350: 4da9 f53c e8ea e9bb d363 74bc 891f f4bb
00000360: 5cc4 973c c094 633c cceb 28bd b0a9 1abd
00000370: 6e9a 13bd 78d3 23bd c647 d3bc 7d11 82bd
00000380: 4082 d03c 9e9c 13bd 30a5 fd3b 71d3 473d
00000390: 6e3b 5d3d da2f 82bc 8d62 133d d6b2 58bd
000003a0: 41d2 2bbd 6969 3cbd 7c41 9d3c e8f4 5abd
000003b0: 2883 093d b03a 453c b05d 813c f360 833c
000003c0: c080 0dbd 880f 21bd 4585 833d 9247 58bd
000003d0: 6055 5bbb 99ca 33bc 1a48 17bd f021 203c
000003e0: a3aa 79bd 4824 ce3c 0c63 143d 1874 883a
000003f0: 1886 043d a4f0 3c3d dafc 06bd 805a 0fba

bias f4 [64]
0.055501383 0.015572163 -0.0537871 -0.03348131 -0.039139897 0.004522749 -0.0333274 0.08137397
-0.0029012337 0.08044254 0.0155585185 -0.009381324 -0.039513104 -0.04688518 0.048022974 -0.009849124
-0.06642347 0.006288079 0.0057858527 -0.01461796 0.02582205 -0.0029735155 -0.02282528 0.042436164
-0.031305023 -0.038622323 0.0025006318 0.003409423 0.017264921 -0.0030904477 -0.054572202 -0.049087122
0.10234715 -0.003935717 0.037289996 0.05181908 0.009789921 0.0040310877 0.031017458 -0.024784809
0.053358328 -0.0019225245 -0.038758468 0.06402127 0.019269444 -0.04413441 0.015662393 -0.04543085
-0.024485152 0.017481163 -0.004609216 0.03416342 -0.015913013 -0.014413801 0.05731789 -0.011110957
0.0056752637 -0.03025432 -0.03377144 0.042931043 -0.056355126 0.08554096 -0.012141765 -0.039989743
00000000: 6b55 633d 6322 7f3c dd4f 5cbd b323 09bd
00000010: 2851 20bd 9233 943b 5082 08bd 65a7 a63d
00000020: a022 3ebb 0fbf a43d 28e9 7e3c 20b4 19bc
00000030: 7ed8 21bd ad0a 40bd bdb3 443d 385e 21bc
00000040: 0709 88bd 3b0c ce3b 4097 bd3b 2b80 6fbc
00000050: c488 d33c 50df 42bb 15fc babc 8bd1 2d3d
00000060: b239 00bd 7132 1ebd a4e1 233b a070 5f3b
00000070: 2a6f 8d3c 1c89 4abb 1a87 5fbd 940f 49bd
00000080: 629b d13d 30f7 80bb 65bd 183d 3e40 543d
00000090: e865 203c 3717 843b 5318 fe3c 8309 cbbc
000000a0: 438e 5a3d 38fd fbba 33c1 1ebd 951d 833d
000000b0: f4da 9d3c 48c6 34bd 6b4e 803c b315 3abd
000000c0: 1695 c8bc a834 8f3c e808 97bb f1ee 0b3d
000000d0: 025c 82bc dd27 6cbc 2ac6 6a3d bb0a 36bc
000000e0: 90f7 b93b e8d7 f7bc ec53 0abd 76d8 2f3d
000000f0: a2d4 66bd 1930 af3d 41ee 46bc 49cc 23bd

weight f4 [64, 64]
-0.055093057 0.008298235 -0.10295762 0.10846035 0.053777426 -0.07478069 0.07398205 0.021664226
0.06506324 0.034494776 0.0014035553 -0.07028325 -0.08533642 -0.06519866 0.061481938 -0.08223534
-0.047628812 0.00456664 0.09875798 -0.008527014 0.06390658 -0.093676254 0.020877546 -0.045932055
-0.096529186 0.033777952 -0.0919822 0.0027709305 0.009843655 0.08951169 -0.0093937665 0.09518516
0.14772314 0.061356187 -0.028121622 0.07007407 0.018798828 -0.08315956 -0.1115757 -0.106927656
-0.0149441445 0.003795273 0.09477343 -0.021251425 -0.018713936 0.022225037 -0.08489261 -0.09930613
0.061342668 -0.060625363 -0.08680303 0.06250055 -0.026297245 -0.033741906 -0.03827779 -0.035846543
-0.09521489 -0.06341721 0.030901268 0.09055803 0.055463992 0.1576964 -0.08489698 -0.058638908
-0.091399774 -0.09172398 -0.006591052 -0.11364992 -0.01632297 -0.04153654 0.09182106 -0.08507405
0.033964083 0.06662001 -0.014984205 -0.06449488 -0.019906715 0.046031877 -0.11228223 -0.11216687
0.11866772 -0.0060205758 0.039530814 -0.12385378 -0.051338147 -0.11561085 -0.054469258 0.025155872
-0.038103193 -0.049576715 -0.12438731 -0.069889635 -0.0009638816 -0.01822482 -0.042333767 0.024620593
-0.0016186684 -0.019788727 -0.0932211 0.0031764954 -0.016955644 0.06414051 -0.08326419 -0.003563732
0.056629766 -0.09824598 0.074540585 0.08092323 0.116449475 -0.105980136 0.01246582 0.06916359
0.04417835 -0.054262947 0.06247267 0.031184003 -0.06711176 -0.09218539 -0.09644225 -0.05284996
-0.07307127 0.03945312 0.06506455 0.03430228 0.006372422 -0.059613377 0.09996076 -0.101459645
0.06221542 -0.11094272 -0.06875278 0.04168701 -0.09777838 0.006012127 -0.014343406 0.0633139
0.010394797 -0.009330019 0.081545725 0.12050259 -0.02003929 -0.028217854 -0.008268603 0.08500922
0.008747257 0.06528021 0.102958545 0.07551742 0.100876786 0.08448732 -0.11475827 -0.0016669597
-0.10987078 0.056685813 -0.017471632 -0.04268387 -0.024252405 -0.039104022 0.065919936 0.028876211
-0.015977817 -0.10337871 -0.06863578 0.1154404 0.0443002 0.051531427 0.03527002 0.103618644
-0.05858033 0.052040406 -0.0661758 -0.060073663 0.052705396 0.008294791 -0.061854213 0.030050945
-0.109697364 0.037909925 -0.0011885166 -0.12084703 -0.045919668 -0.08921121 -0.11014582 0.036268838
0.09282513 0.03691545 -0.005088702 -0.06183784 0.07595136 -0.09630278 -0.044408247 -0.014151524
-0.106496364 -0.075611964 -0.09016384 -0.024949774 -0.11733492 0.02406215 0.025637254 -0.053366948
-0.014840707 -0.10302889 0.099443614 0.06971705 0.09679665 0.076184385 0.09717899 0.03764704
0.050040003 0.05290108 -0.00041264296 0.048022505 -0.11761599 0.03394492 -0.04619035 -0.134242
-0.016580584 0.027698461 0.034268625 -0.074641004 -0.014879399 -0.09449028 -0.034613132 0.02617532
0.06883704 -0.07335442 -0.04977989 -0.05564342 -0.05856372 -0.07566544 -0.11386497 0.059845973
-0.11488696 0.061165024 0.10414767 0.0021394044 0.10259636 -0.113440216 -0.10157126 -0.08625618
-0.10785043 -0.037040696 -0.07827361 -0.05507608 -0.120012216 -0.043561146 0.118589744 -0.08548925
0.017283887 -0.028709903 -0.011033282 0.1102253 -0.1093951 0.043760806 -0.10246243 0.10090613
00000000: 42a9 61bd 52f5 073c 72db d2bd 7620 de3d
00000010: b845 5c3d 9e26 99bd e783 973d 2d79 b13c
00000020: e03f 853d 654a 0d3d 80f7 b73a aaf0 8fbd
00000030: dcc4 aebd e086 85bd 7cd4 7b3d 006b a8bd
00000040: 6e16 43bd c1a3 953b a041 ca3d e4b4 0bbc
00000050: 74e1 823d 56d9 bfbd 6307 ab3c 4023 3cbd
00000060: 18b1 c5bd c05a 0a3d 2a61 bcbd 8098 353b
00000070: 4847 213c e851 b73d 50e8 19bc 70f0 c23d
00000080: bc44 173e a050 7b3d 515f e6bc fe82 8f3d
00000090: 0000 9a3c 8f4f aabd cd81 e4bd e3fc dabd
000000a0: 49d8 74bc 1dba 783b 9218 c23d 7817 aebc
000000b0: f84d 99bc 4811 b63c 2ddc adbd 0361 cbbd
000000c0: 7342 7b3d 4d52 78bd c9c5 b1bd 4a00 803d
000000d0: 526d d7bc f434 0abd 2cc9 1cbd d3d3 12bd
000000e0: 0600 c3bd e2e0 81bd a824 fd3c 7d76 b93d
000000f0: 362e 633d 2a7b 213e 78de adbd 5a2f 70bd
00000100: ce2f bbbd c8d9 bbbd c0f9 d7bb 4ac1 e8bd
00000110: c0b7 85bc 3822 2abd ae0c bc3d 4e3b aebd
00000120: ec1d 0b3d 1270 883d 5080 75bc e415 84bd
00000130: 6813 a3bc ec8b 3c3d 3af4 e5bd beb7 e5bd
00000140: 1008 f33d 4048 c5bb 10eb 213d 0da7 fdbd
00000150: f347 52bd 62c5 ecbd 281b 5fbd b013 ce3c
00000160: 1812 1cbd f410 4bbd c6be febd 4c22 8fbd
00000170: 00ad 7cba 384c 95bc 2c66 2dbd 20b1 c93c
00000180: 8029 d4ba f81b a2bc b4ea bebd c02c 503b
00000190: 90e6 8abc 1a5c 833d 6a86 aabd 808d 69bb
000001a0: 9df4 673d 3035 c9bd bca8 983d 14bb a53d
000001b0: 107d ee3d 1d0c d9bd 703d 4c3c a4a5 8d3d
000001c0: 5cf4 343d d342 5ebd 58e3 7f3d 9875 ff3c
000001d0: e471 89bd b2cb bcbd 8483 c5bd 3379 58bd
000001e0: 64a6 95bd 9899 213d 9040 853d 8c80 0c3d
000001f0: c0cf d03b 282d 74bd 3ab8 cc3d 13ca cfbd
00000200: 99d5 7e3d f035 e3bd 42ce 8cbd 00c0 2a3d
00000210: 0840 c8bd 6001 c53b 9b00 6bbc b8aa 813d
00000220: f04e 2a3c f0dc 18bc 7201 a73d 10ca f63d
00000230: 7029 a4bc 2129 e7bc 0979 07bc 5019 ae3d
00000240: a850 0f3c a1b1 853d eedb d23d e1a8 9a3d
00000250: 7d98 ce3d b007 ad3d 6206 ebbd e37d daba
00000260: ee03 e1bd 622f 683d ab20 8fbc 48d5 2ebd
00000270: fbac c6bc 8a2b 20bd 0801 873d ce8d ec3c
00000280: e9e3 82bc 38b8 d3bd ea90 8cbd 046c ec3d
00000290: 2074 353d 9e12 533d 4c77 103d 0336 d43d
000002a0: eef1 6fbd 5228 553d 2e87 87bd cd0f 76bd
000002b0: 9de1 573d e0e6 073c d85a 7dbd 662d f63c
000002c0: 03a9 e0bd 7047 1b3d 00c8 9bba a67e f7bd
000002d0: 4316 3cbd 5eb4 b6bd 2294 e1bd a28e 143d
000002e0: 1a1b be3d a834 173d 20bf a6bb ad49 7dbd
000002f0: 638c 9b3d 643a c5bd 6ce5 35bd cbdb 67bc
00000300: c41a dabd 72da 9abd d2a7 b8bd 7863 ccbc
00000310: 4a4d f0bd fc1d c53c 3805 d23c 4d97 5abd
00000320: 7026 73bc d000 d3bd 18a9 cb3d d0c7 8e3d
00000330: 523d c63d 8f06 9c3d c705 c73d c833 1a3d
00000340: bff6 4c3d ceae 583d 0058 d8b9 3fb3 443d
00000350: a7e0 f0bd d409 0b3d 1832 3dbd bc76 09be
00000360: 01d4 87bc e2e7 e23c 425d 0c3d 62dd 98bd
00000370: b9c8 73bc 1f84 c1bd 80c6 0dbd a06d d63c
00000380: 6ffa 8c3d d83a 96bd ffe5 4bbd 5bea 63bd
00000390: 83e0 6fbd 7bf6 9abd 0a32 e9bd 0d21 753d
000003a0: db49 ebbd 2d88 7a3d 604b d53d 4035 0c3b
000003b0: 0a1e d23d 5853 e8bd 9804 d0bd 15a7 b0bd
000003c0: b0e0 dcbd fcb7 17bd ea4d a0bd 7597 61bd
000003d0: f7c8 f5bd 2c6d 32bd 2edf f23d fd14 afbd
000003e0: f096 8d3c 0831 ebbc f0c4 34bc cdbd e13d
000003f0: 8a0a e0bd 883e 333d d3d7 d1bd e0a7 ce3d

bias f4 [64]
0.09569404 -0.09647645 -0.0727533 0.086045474 0.016286908 0.08829483 0.013474926 -0.12918392
0.093821384 0.12129319 0.10749486 -0.06974031 0.09936038 0.04686491 0.11153607 -0.05388521
0.04511764 -0.070422366 0.0413366 0.031712525 0.09684034 0.06401702 0.11336596 -0.089344576
-0.09085436 0.068738125 -0.10072781 0.02485329 -0.063501954 0.10418109 0.13314264 -0.024173168
-0.084657684 -0.010663636 -0.10973339 -0.08922067 0.04658585 0.0020398526 0.07170529 -0.10683018
0.051005017 -0.0533548 0.04306687 0.13525376 0.10448969 0.10562031 0.0070507554 0.012575603
-0.05134141 -0.022366207 -0.05984301 -0.033038788 0.023796268 0.113969564 -0.1165044 -0.06482419
-0.09027356 -0.0057340334 -0.05054672 0.10599319 -0.008659667 -0.0054701567 0.07801287 -0.06595656
00000000: 3dfb c33d 7295 c5bd afff 94bd 9c38 b03d
00000010: 1f6c 853c ebd3 b43d f0c5 5c3c ca48 04be
00000020: 6d25 c03d 9068 f83d 4426 dc3d 02d4 8ebd
00000030: 747d cb3d 6bf5 3f3d 066d e43d bdb6 5cbd
00000040: 46cd 383d 9a39 90bd 9150 293d fee4 013d
00000050: 3a54 c63d 5b1b 833d 6a2c e83d 4afa b6bd
00000060: da11 babd 93c6 8c3d 624a cebd 2099 cb3c
00000070: 500d 82bd e55c d53d 8b56 083e cf06 c6bc
00000080: 0261 adbd 88b6 2ebc e6bb e0bd 54b9 b6bd
00000090: ced0 3e3d 0caf 053b 39da 923d c8c9 dabd
000000a0: a3ea 503d 908a 5abd e366 303d f67f 0a3e
000000b0: b1fe d53d 764f d83d 060a e73b e709 4e3c
000000c0: 5f4b 52bd 5639 b7bc f21d 75bd ae53 07bd
000000d0: 64f0 c23c e068 e93d dc99 eebd 8cc2 84bd
000000e0: 58e1 b8bd 8fe4 bbbb 140a 4fbd f512 d93d
000000f0: 47e1 0dbc 003f b3bb 36c5 9f3d 3c14 87bd

weight f4 [4, 64]
-0.1653741 0.0148396045 0.07062882 0.028596545 0.04299728 -0.12532067 0.05987053 -0.09094629
-0.059988104 -0.011517741 -0.016520413 0.019917607 0.112032026 -0.0014904047 0.09592098 -0.042833637
-0.04756205 -0.08190651 -0.12251141 -0.113768935 0.014882436 0.08166545 -0.15956546 -0.115548566
0.01516673 0.06168679 0.013456345 -0.001040265 0.038021788 0.039326675 -0.11652408 0.07228655
0.07769722 0.09401527 -0.043899994 0.048640266 -0.018467782 -0.053047672 -0.0709281 0.11762943
0.01847362 -0.041529384 -0.057338536 -0.12478565 0.052601654 -0.065909095 -0.05092491 -0.14561616
-0.0134948315 0.09302254 -0.07684491 0.0015634649 -0.03693294 0.049141064 0.09512696 0.012693942
-0.09357129 0.05595136 -0.104110025 -0.1545058 0.033714324 0.016168162 0.04994026 -0.024336591
0.06062849 -0.060811102 0.10641472 -0.056284823 0.14212388 0.021202391 -0.06302686 0.034149468
-0.057618007 0.03889862 -0.11001305 -0.049191013 -0.072792895 -0.102247626 0.08372927 0.103487514
-0.08940586 0.09280187 0.05179132 -0.035036042 0.1569609 -0.052499432 0.15229614 -0.07859892
-0.044034585 -0.06638145 -0.11838144 -0.037294537 -0.089742064 0.0768945 -0.018307133 -0.059694428
0.024440631 -0.046664488 0.10633219 0.05978142 0.15054137 0.040862873 0.075704515 -0.046808794
0.1372504 0.05499626 0.081392154 0.14186868 -0.10860349 0.08873999 -0.051544115 -0.074863724
0.107971594 0.029981958 -0.021367423 0.089979626 -0.06676266 0.062016312 0.005060288 0.041713938
0.041950032 0.04921785 0.012811041 0.04652163 -0.11699982 -0.001971066 -0.00092768 0.07484017
-0.060178522 0.051790386 0.114660166 -0.074296765 -0.1437619 -0.057237584 0.074665636 0.09821381
-0.12865344 0.0873191 -0.07012201 -0.048028395 0.10439528 -0.13240314 -0.043148085 -0.04933809
-0.016299168 -0.07492204 -0.048943453 -0.120368995 -0.004729915 -0.08989401 -0.08003791 -0.102216795
-0.0051038265 -0.00242361 -0.015502483 -0.049887583 0.10461037 -0.059817377 -0.12920396 0.0011463414
-0.037000448 0.03443145 -0.0331564 0.0059600174 0.0808854 0.054323647 -0.029898427 -0.032344192
0.038953472 -0.03877426 -0.015790256 -0.099714465 0.10492654 -0.025507513 0.08794529 0.05688008
-0.07879442 0.03794641 -0.12489795 -0.13556057 0.011987599 -0.12826686 0.112287566 -0.030875772
-0.079607666 0.05523518 0.091830835 -0.12140496 0.021518128 -0.06960368 -0.0767723 0.10773307
0.12949151 -0.03354308 0.04726425 -0.115412965 0.05497449 -0.032601096 0.066656545 -0.03142017
0.11113083 0.0052468386 -0.122399494 -0.12372114 -0.008870951 -0.10921834 -0.030337468 -0.07383562
0.06147297 0.04210262 0.12433331 -0.09321161 0.047151852 -0.08152462 0.050091393 0.041440874
0.11946547 -0.04415308 0.025505275 0.0960556 0.00890933 0.075551316 -0.03226906 -0.012563804
0.093774304 -0.03538114 0.13319299 -0.10208621 0.07683693 -0.11035602 0.08344404 -0.11280682
0.09294224 0.029028846 0.124579675 0.030182144 0.007177829 0.030265473 0.10837533 -0.061042316
-0.018794205 -0.11646412 -0.057521984 -0.113006465 -0.082801744 -0.00017533216 -0.11158353 0.114408806
0.009230256 0.11876714 -0.015364905 -0.01992943 0.02064763 0.08954662 -0.022582991 -0.11181432
00000000: d457 29be d021 733c d8a5 903d 4d43 ea3c
00000010: ea1d 303d 1054 00be cd3a 753d 0c42 babd
00000020: 16b6 75bd e8b4 3cbc d155 87bc 402a a33c
00000030: 0c71 e53d af59 c3ba 3872 c43d 5372 2fbd
00000040: 6dd0 42bd 9abe a7bd 43e7 fabd b0ff e8bd
00000050: 76d5 733c 3740 a73d 2165 23be baa4 ecbd
00000060: e07d 783c 4aab 7c3d 0078 5c3c 8059 88ba
00000070: bcbc 1b3d 0215 213d 2da4 eebd f90a 943d
00000080: b81f 9f3d 148b c03d 7bd0 33bd 043b 473d
00000090: bf49 97bc 8448 59bd c042 91bd b3e7 f03d
000000a0: fd55 973c b71a 2abd d0db 6abd 9e8f ffbd
000000b0: d574 573d 59fb 86bd a396 50bd 671c 15be
000000c0: 6d19 5dbc 9a82 be3d dd60 9dbd 2ded cc3a
000000d0: ff46 17bd 2448 493d ecd1 c23d 40fa 4f3c
000000e0: 4ea2 bfbd 412d 653d a337 d5bd c536 1ebe
000000f0: 0818 0a3d 1873 843c 288e 4c3d 885d c7bc
00000100: 9455 783d 1015 79bd f6ef d93d ea8a 66bd
00000110: ec88 113e a3b0 ad3c 3a14 81bd 50e0 0b3d
00000120: dc00 6cbd 2954 1f3d 864e e1bd 847c 49bd
00000130: 7114 95bd 3467 d1bd 407a ab3d 43f1 d33d
00000140: 6b1a b7bd e80e be3d 2323 543d f481 0fbd
00000150: 5cba 203e a509 57bd 85f3 1b3e 78f8 a0bd
00000160: 9c5d 34bd fff2 87bd f871 f2bd 28c2 18bd
00000170: b0ca b7bd dd7a 9d3d d7f8 95bc 2582 74bd
00000180: b837 c83c 4323 3fbd b1c4 d93d 5ddd 743d
00000190: 8427 1a3e d45f 273d f80a 9b3d 94ba 3fbd
000001a0: 5e8b 0c3e c243 613d eeb0 a63d 0646 113e
000001b0: 826b debd 50bd b53d ec1f 53bd 2752 99bd
000001c0: 3620 dd3d b99c f53c bc0a afbc 3d47 b83d
000001d0: ddba 88bd d104 7e3d c6d0 a53b 3cdc 2a3d
000001e0: ccd3 2b3d a898 493d 67e5 513c 778d 3e3d
000001f0: 9a9d efbd 002d 01bb 8d2f 73ba ce45 993d
00000200: c17d 76bd 2822 543d f3d2 ea3d e728 98bd
00000210: 5236 13be f571 6abd 4cea 983d 5224 c93d
00000220: babd 03be 5bd4 b23d 219c 8fbd 6cb9 44bd
00000230: 31cd d53d b094 07be 0cbc 30bd bd16 4abd
00000240: d585 85bc ba70 99bd ee78 48bd 0584 f6bd
00000250: 67fd 9abb 5a1a b8bd eaea a3bd 0a57 d1bd
00000260: 003e a7bb 6ed5 1ebb 20fe 7dbc ec56 4cbd
00000270: f63d d63d 1103 75bd 0b4e 04be d640 963a
00000280: c88d 17bd fe07 0d3d 01cf 07bd 404c c33b
00000290: 3fa7 a53d 7982 5e3d 8ced f4bc 587b 04bd
000002a0: ad8d 1f3d c2d1 1ebd 915a 81bc 1937 ccbd
000002b0: bae3 d63d 22f5 d0bc a91c b43d 16fb 683d
000002c0: f85e a1bd b26d 1b3d 7fca ffbd 64d0 0abe
000002d0: a267 443c 6358 03be 06f7 e53d 30ef fcbc
000002e0: 5809 a3bd 493e 623d ce11 bc3d 2aa3 f8bd
000002f0: c946 b03c 608c 8ebd cc3a 9dbd 28a3 dc3d
00000300: 6c99 043e 7864 09bd 2998 413d a25d ecbd
00000310: ee2c 613d ba88 05bd 3a83 883d 70b2 00bd
00000320: 9098 e33d aced ab3b 96ac fabd 8261 fdbd
00000330: 7757 11bc ddad dfbd 4886 f8bc 2137 97bd
00000340: 15cb 7b3d cc73 2c3d 76a2 fe3d bbe5 bebd
00000350: 4d22 413d 61f6 a6bd a22c 4d3d e8bd 293d
00000360: 50aa f43d dcd9 34bd 70f0 d03c ccb8 c43d
00000370: 70f8 113c a6ba 9a3d 902c 04bd 6ad8 4dbc
00000380: be0c c03d d0eb 10bd be63 083e 9312 d1bd
00000390: ae5c 9d3d 5602 e2bd b5e4 aa3d 4307 e7bd
000003a0: 8058 be3d e7cd ed3c a123 ff3d 8b40 f73c
000003b0: fe33 eb3b 4cef f73c e3f3 dd3d 8207 7abd
000003c0: 4ef6 99bc be84 eebd 2c9c 6bbd ef6f e7bd
000003d0: f693 a9bd 5ed9 37b9 e885 e4bd 2a4f ea3d
000003e0: 803a 173c 303c f33d 15bd 7bbc 0b43 a3bc
000003f0: 3825 a93c 3864 b73d f7ff b8bc e8fe e4bd

bias f4 [4]
-0.1021086 0.07847127 -0.090780504 -0.086258076
00000000: 501e d1bd 8cb5 a03d 21eb b9bd 13a8 b0bd

weight f4 [1, 64]
0.07002669 -0.08237773 -0.0024729264 -0.035693113 -0.07782855 -0.06878762 0.06562115 0.11389152
0.028783455 -0.014691727 0.038881723 0.076586545 0.07443037 -0.08890405 -0.040259123 0.16776857
0.11583355 0.05436027 -0.053542055 0.00024353787 -0.03974952 -0.041674815 -0.03871049 0.087105125
0.088206306 0.05628609 0.0052553266 0.11202724 0.028717399 0.0337462 0.07499929 -0.10907576
0.024165839 0.028307233 -0.09637893 -0.10005303 -0.14267743 0.14640357 -0.04322771 0.06922373
0.09179132 -0.05926175 0.017989744 0.0125405025 -0.09085184 -0.036354277 -0.0021609087 0.01917657
-0.094676875 -0.07748184 -0.079833254 0.08900979 0.0051730853 -0.094272025 0.04182766 -0.080167264
-0.0018985122 -0.008528776 0.0059484886 0.015954498 0.0536613 -0.000216946 -0.07945379 0.091537
00000000: 276a 8f3d a8b5 a8bd d210 22bb f132 12bd
00000010: 9364 9fbd 86e0 8cbd 6264 863d f53f e93d
00000020: 48cb eb3c 92b5 70bc 7142 1f3d 68d9 9c3d
00000030: f36e 983d 5413 b6bd c0e6 24bd 86cb 2b3e
00000040: 243a ed3d e0a8 5e3d ea4e 5bbd 335e 7f39
00000050: 65d0 22bd 36b3 2abd e48e 1ebd 2c64 b23d
00000060: 82a5 b43d 3e8c 663d e034 ac3b 8a6e e53d
00000070: c040 eb3c 7539 0a3d 3a99 993d 1d63 dfbd
00000080: 70f7 c53c 92e4 e73c 5162 c5bd 9ae8 ccbd
00000090: 081a 12be d1ea 153e 8a0f 31bd 2cc5 8d3d
000000a0: 16fd bb3d 73bc 72bd 3a5f 933c ae76 4d3c
000000b0: 8810 babd 39e8 14bd 089e 0dbb 2f18 9d3c
000000c0: f3e5 c1bd cdae 9ebd 9e7f a3bd c44a b63d
000000d0: fc82 a93b b111 c1bd 7b53 2b3d bc2e a4bd
000000e0: 80d7 f8ba 47bc 0bbc 8aeb c23b 02b3 823c
000000f0: f4cb 5b3d 007c 63b9 abb8 a2bd c077 bb3d
